models/best_model.pt (torch, 526050 bytes, 13 tensors)

lstm.weight_ih_l0 f4 [320, 1]
-0.6272008 -0.07023603 -0.40019405 0.42283675 -0.86938065 0.047304954 -0.19244115 0.1577411
-0.53262746 -0.20725495 0.41895762 -0.045564037 -0.2658656 -0.25601208 -0.21097545 0.46596962
-0.3649753 -0.055043414 -0.074281946 0.20895463 0.17353866 -0.1937061 0.07955997 0.23158549
0.058111835 0.35037038 0.19053434 -0.54277414 -0.42994905 -0.48248988 0.4533982 -0.10285188
-0.014971621 0.09040676 -0.3850934 -1.0455079 -0.5415618 0.0125792185 -0.32644558 -0.10558177
0.47637698 -0.5902941 0.018839952 -0.61064583 -0.05103931 -0.4550106 -0.61989814 -0.7805246
-0.4143055 -0.21643007 -0.040281355 0.015516188 -0.23465101 -0.23016968 0.3256192 0.12797336
-0.68465704 0.40405697 0.2701547 -0.5460171 -0.55713177 0.08208751 -0.0518083 -0.30817592
-0.20904787 -0.09981354 -0.20480017 -0.24553327 -0.50674 0.47110316 0.2280972 -0.38154122
-0.12043524 -0.23953259 -0.031143965 -0.19681165 -0.18614799 -0.17734325 0.3187203 -0.7579938
-1.6362175 -0.53037286 -0.663932 -0.639649 -0.47741768 0.23773463 -0.1558743 0.66924196
-1.8693625 0.005365085 0.35127822 0.6225764 0.20253448 1.0112051 -0.6729868 -0.38541695
-0.5561132 -0.42445573 -0.34986418 -0.0107309595 -0.20845358 -0.15718873 -0.27674285 0.41561958
-0.6269813 -0.23162034 -0.015999483 -1.6556073 -0.322182 -0.65864027 -0.53340185 -0.76812124
0.12097152 0.42659643 0.13954788 -0.7384109 -0.40998724 -0.16680999 0.7130446 0.3480202
-0.8238569 -0.72662264 -0.98726803 0.41934454 -0.8731652 -0.5514223 -0.36569497 0.09458809
0.6323387 0.45690578 0.65411144 -0.4461691 0.32467744 -0.13776557 -0.122001596 -0.04288462
-0.6143758 -0.30402252 -0.5654876 -1.703774 -0.026913859 -0.047709048 -0.24938506 -0.747856
-0.06025446 -0.2151914 -0.24678561 0.37190577 0.3219891 0.28519425 0.20745133 -0.6569025
-0.059940815 0.45470023 -0.8663028 -0.3377028 0.35456112 -0.5334246 -0.7343501 -1.7622447
-1.5697316 -0.1405059 0.22114411 0.6357785 0.12340876 -0.410256 -0.6215088 0.70483184
-1.341813 0.41775838 -0.6616147 0.8491105 0.5181265 0.7926195 0.64039516 -0.57731384
-0.01740574 0.5449428 0.16792834 -0.82430834 -0.52222776 -0.6158433 0.55625224 -0.7804901
0.20073248 -0.52505916 -0.5858043 1.5589714 -0.16577162 -0.17932747 0.75416416 0.07289346
-0.38151926 -0.64108056 -0.38463953 0.26675645 -0.054302163 0.3702009 -0.6507438 -0.7107685
-0.57030994 -0.115190804 0.7396356 -0.55241084 0.84846383 -0.08933198 0.084043935 0.52690405
-0.69078374 -0.52694035 -0.674066 -0.44525412 -0.49309772 0.39195538 -0.44970852 0.4135752
-0.05562547 -0.4875195 -0.9109709 -1.1941487 -0.50167376 -0.4157772 0.27272102 0.13061401
-0.45943546 -0.27632567 -0.19186227 -0.64070845 0.55253303 0.7402469 0.74164164 -0.24028121
0.3779172 0.75142956 -0.42230383 0.71392566 -0.62641424 -0.19402005 -0.44773233 -1.3950832
-0.8728171 -0.047878858 -0.35134798 0.44678822 -0.7259683 0.05863861 -0.20526123 0.65151435
-0.63781226 -0.07077789 0.73382753 0.6516743 -0.04642862 0.6277223 -0.4209361 0.55604935
00000000: 3b90 20bf e8d7 8fbd 3ce6 ccbe 0f7e d83e
00000010: bb8f 5ebf d7c2 413d 4b0f 45be e286 213e
00000020: 465a 08bf a43a 54be 9d81 d63e 5ba1 3abd
00000030: 891f 88be 0414 83be f309 58be 9293 ee3e
00000040: 0bde babe 3475 61bd 2221 98bd 34f8 553e
00000050: 1eb4 313e e45a 46be 56f0 a23d bf24 6d3e
00000060: ad06 6e3d bf63 b33e 6f1b 433e 3ff3 0abf
00000070: 4822 dcbe ea08 f7be cf23 e83e 02a4 d2bd
00000080: 884b 75bc 2e27 b93d f62a c5be 34d3 85bf
00000090: cba3 0abf 1119 4e3c e023 a7be 413b d8bd
000000a0: afe7 f33e 841d 17bf 3e56 9a3c 4953 1cbf
000000b0: 980e 51bd 26f7 e8be a5b1 1ebf 76d0 47bf
000000c0: da1f d4be d89f 5dbe 10fe 24bd 9c37 7e3c
000000d0: 5b48 70be 9ab1 6bbe 8fb7 a63e 730b 033e
000000e0: af45 2fbf 8ee0 ce3e b851 8a3e c7c7 0bbf
000000f0: 30a0 0ebf 7f1d a83d f134 54bd 3cc9 9dbe
00000100: a510 56be 0b6b ccbd 23b7 51be 136d 7bbe
00000110: b6b9 01bf 6f34 f13e 5092 693e 5f59 c3be
00000120: c0a6 f6bd 0848 75be a121 ffbc fe88 49be
00000130: 949d 3ebe 7899 35be 4f2f a33e e20b 42bf
00000140: 936f d1bf 84c6 07bf 73f7 29bf 09c0 23bf
00000150: 1770 f4be b570 733e 839d 1fbe 7153 2b3f
00000160: 4547 efbf 98cd af3b bdda b33e 2b61 1f3f
00000170: 3365 4f3e 2b6f 813f dd48 2cbf 5f55 c5be
00000180: 6f5d 0ebf 4352 d9be 6621 b3be e8d0 2fbc
00000190: db74 55be 15f6 20be 3db1 8dbe 17cc d43e
000001a0: d981 20bf e22d 6dbe 5911 83bc f1ea d3bf
000001b0: 0af5 a4be a69c 28bf 068d 08bf 98a3 44bf
000001c0: ebbf f73d d96a da3e a4e5 0e3e 7f08 3dbf
000001d0: d9e9 d1be 3dd0 2abe 178a 363f b42f b23e
000001e0: 49e8 52bf f103 3abf 99bd 7cbf 54b4 d63e
000001f0: c187 5fbf 032a 0dbf 5f3c bbbe 67b7 c13d
00000200: f3e0 213f 8eef e93e d973 273f 4770 e4be
00000210: 1f3c a63e 6b12 0dbe f9db f9bd c9a7 2fbd
00000220: bc47 1dbf d7a8 9bbe ccc3 10bf 4415 dabf
00000230: 747a dcbc 906a 43bd cc5e 7fbe 7e73 3fbf
00000240: 61cd 76bd 225b 5cbe 5eb5 7cbe 6f6a be3e
00000250: c1db a43e fb04 923e 1f6e 543e c32a 28bf
00000260: 8084 75bd 78ce e83e 05c6 5dbf 62e7 acbe
00000270: 0989 b53e 848e 08bf 5efe 3bbf 3c91 e1bf
00000280: f7ec c8bf c7e0 0fbe 9a73 623e 61c2 223f
00000290: bbbd fc3d 130d d2be 331b 1fbf dc6f 343f
000002a0: 87c0 abbf 6de4 d53e 955f 29bf 4e5f 593f
000002b0: f0a3 043f 1de9 4a3f f0f0 233f d7ca 13bf
000002c0: 7c96 8ebc 5f81 0b3f 68f5 2b3e df05 53bf
000002d0: b8b0 05bf e8a7 1dbf 8c66 0e3f 33ce 47bf
000002e0: d18c 4d3e 476a 06bf 45f7 15bf 608c c73f
000002f0: 09c0 29be 9fa1 37be e710 413f 2b49 953d
00000300: 7e56 c3be db1d 24bf 79ef c4be 4d94 883e
00000310: f26b 5ebd f98a bd3e 2597 26bf edf4 35bf
00000320: d5ff 11bf 28e9 ebbd c258 3d3f cc6a 0dbf
00000330: ed34 593f aff3 b6bd 3a1f ac3d 2fe3 063f
00000340: 34d7 30bf 90e5 06bf 978f 2cbf 59f8 e3be
00000350: 4e77 fcbe 60ae c83e 3240 e6be 21c0 d33e
00000360: 88d7 63bd 289c f9be 6435 69bf ddd9 98bf
00000370: b16d 00bf c0e0 d4be 17a2 8b3e aebf 053e
00000380: 203b ebbe 8f7a 8dbe 8b77 44be 7805 24bf
00000390: ce72 0d3f d280 3d3f 3adc 3d3f 470c 76be
000003a0: 5d7e c13e b05d 403f 3538 d8be d5c3 363f
000003b0: af5c 20bf 31ad 46be 2c3d e5be 1692 b2bf
000003c0: f170 5fbf 9f1c 44bd e2e3 b3be 6dc1 e43e
000003d0: 0fd9 39bf 0a2f 703d 0030 52be a5c9 263f
000003e0: aa47 23bf 00f4 90bd 1fdc 3b3f 20d4 263f
000003f0: f02b 3ebd 69b2 203f f084 d7be 4059 0e3f

lstm.weight_hh_l0 f4 [320, 80]
-0.1485348 0.6102325 0.07586636 0.36587334 -0.73027027 -0.12611903 0.0736169 0.42651492
-0.23613869 0.41736218 -0.43350762 -0.26413327 -0.045904037 0.5820146 -0.0591636 -0.57127964
0.17993593 0.125296 0.033437796 0.18832156 -0.11486302 0.029059963 0.11299729 -0.30865103
-0.24776797 -0.16805315 -0.21438953 0.1773147 0.14219044 0.18975794 0.68897814 -0.20757957
0.06274531 -0.35523704 0.07111546 1.2652204 -0.21864262 0.30655816 0.07946288 -0.06155288
-0.6394506 -0.054604504 0.1678043 0.81920683 -0.34527248 -0.2523032 -0.082207866 -0.618202
0.024138214 -0.17162171 -0.3398222 0.09086194 0.2111607 0.24066658 -0.2854388 0.19238563
-0.3456143 -0.48462164 0.19764385 -0.07180845 0.076293536 0.01633763 0.17438054 -0.12970167
-0.04625527 -0.019177657 0.5915367 0.12987038 -0.26376814 0.51557684 0.4472373 -0.14933737
-0.4436936 -0.3627119 0.6721862 -0.21163759 -0.1443578 0.3575094 -0.20194393 -0.14527167
-0.4579004 -0.58299005 -0.03262573 0.29647493 -0.35001493 -0.31961584 -0.44865915 0.20710026
-0.080413766 0.27990058 -0.08443665 -0.5164896 0.13745089 -0.81596375 -0.22225326 0.23245543
0.115412354 0.5232438 0.06383206 -0.27303785 -0.17926015 -0.3972755 0.4733309 -0.034619585
0.10945302 -0.25662413 -0.59894025 -0.11361129 0.011521329 0.194075 0.1741698 -0.32048637
-0.49936494 -0.015715111 -0.06357033 0.5860593 -0.06732423 -0.31668505 -0.023616994 -0.35206723
0.050687402 0.14046974 0.3035574 0.43113777 -0.3656537 0.18259138 -0.22129181 0.1307027
0.8745633 0.4136855 0.28361237 -0.60249525 -0.15740763 0.056774892 -0.14736684 -0.01576629
-0.22706755 0.017670475 0.092559904 -0.55734444 0.364037 -0.04776925 -0.019179061 0.076047644
-0.36649105 -0.3732561 -0.26440787 0.83275336 -0.0227012 0.35201433 0.19071335 0.24138683
0.08334959 -0.48205832 -0.30457178 -0.75984555 -0.05804697 -0.22338834 -0.4708221 -0.17834175
0.1832063 -0.11078645 -0.34926185 -1.0856807 0.15488574 0.31366998 0.5380667 -0.46485937
0.2031227 -0.4339494 0.66679317 0.47643894 -0.18711592 -0.5638461 -0.45196155 1.1502725
0.12603335 -0.8818459 -0.28573856 0.24336573 0.76961917 0.25179243 -0.7602165 0.7893489
-0.44737986 0.8640524 0.55239826 -0.21442844 0.040526208 0.052686628 -1.1850787 -0.2160564
0.1063174 0.62303734 0.39241946 0.3774104 0.1569534 -0.6368249 -0.15276505 -0.050210014
1.3072805 -0.10486002 -0.738867 -0.06292629 0.06702397 0.2057166 -0.055219635 0.15348162
-0.42157224 -0.48557895 0.39048985 0.41475308 -0.029998831 -0.52487427 0.99098045 -0.2639247
0.00093774014 0.8688608 0.55927616 0.06258041 -0.38438964 0.75379056 -0.3771298 0.044791024
0.55968475 0.39656347 0.063266255 0.11141734 0.24607094 -0.72831684 -0.92221755 0.19550784
-0.15628226 0.7912913 0.1398779 -0.2593098 0.41716802 0.23425464 0.425199 -0.027490342
0.48768792 0.006119333 -0.24472965 -0.49859065 0.09328469 0.38965577 0.3345231 -0.7862601
0.58798116 -0.17443055 0.70032114 -0.7607099 -0.39249253 -0.8506255 -0.35237703 1.1273752
00000000: 8219 18be 3238 1c3f d25f 9b3d c053 bb3e
00000010: fef2 3abf 5925 01be 75c4 963d 2a60 da3e
00000020: 57ce 71be 7fb0 d53e b6f4 ddbe 7a3c 87be
00000030: df05 3cbd e9fe 143f 8855 72bd 623f 12bf
00000040: 2041 383e 984d 003e 12f6 083d 5ed7 403e
00000050: 4e3d ebbd 290f ee3c 206b e73d 8207 9ebe
00000060: e3b6 7dbe 2016 2cbe ee88 5bbe fc91 353e
00000070: 5f9a 113e e84f 423e df60 303f bd8f 54be
00000080: 9d80 803d a1e1 b5be fba4 913d bef2 a13f
00000090: dae3 5fbe 31f5 9c3e 6fbd a23d df1e 7cbd
000000a0: 09b3 23bf f9a8 5fbd e4d4 2b3e 8ab7 513f
000000b0: 8ec7 b0be e32d 81be 995c a8bd 7c42 1ebf
000000c0: 81bd c53c 9abd 2fbe 2dfd adbe d315 ba3d
000000d0: 833a 583e 4d71 763e 0925 92be bd00 453e
000000e0: 5cf4 b0be 5420 f8be 2663 4a3e 4f10 93bd
000000f0: c93f 9c3d 7ed6 853c d090 323e 84d0 04be
00000100: 2a76 3dbd 761a 9dbc f36e 173f befc 043e
00000110: 9e0c 87be d8fc 033f 4afc e43e e5eb 18be
00000120: cf2b e3be 60b5 b9be 6514 2c3f 86b7 58be
00000130: 88d2 13be 790b b73e 64ca 4ebe 19c2 14be
00000140: ec71 eabe d63e 15bf 8fa2 05bd 90cb 973e
00000150: 2835 b3be b0a4 a3be a7b6 e5be 1712 543e
00000160: f9af a4bd 214f 8f3e 1fed acbd aa38 04bf
00000170: edbf 0c3e 00e3 50bf 5c96 63be cc08 6e3e
00000180: 505d ec3d 4ef3 053f 62ba 823d 9ecb 8bbe
00000190: f98f 37be b267 cbbe 6d58 f23e 44cd 0dbd
000001a0: e828 e03d 3d64 83be 2654 19bf 09ad e8bd
000001b0: f5c3 3c3c 99bb 463e 9159 323e ca16 a4be
000001c0: c3ac ffbe fabc 80bc 2931 82bd fb07 163f
000001d0: 49e1 89bd 8b24 a2be 6d78 c1bc 2842 b4be
000001e0: 989d 4f3d 4dd7 0f3e e06b 9b3e 17be dc3e
000001f0: f636 bbbe 3cf9 3a3e 529a 62be eed6 053e
00000200: 61e3 5f3f 96ce d33e a435 913e 213d 1abf
00000210: 772f 21be ca8c 683d 55e7 16be 4e28 81bc
00000220: 6584 68be acc1 903c 0c90 bd3d 20ae 0ebf
00000230: 0f63 ba3e b0a9 43bd 681d 9dbc debe 9b3d
00000240: b7a4 bbbe 6c1b bfbe 7860 87be 532f 553f
00000250: def7 b9bc 393b b43e 5c4a 433e 1c2e 773e
00000260: 31b3 aa3d 59d0 f6be d5f0 9bbe 3d85 42bf
00000270: a9c2 6dbd eabf 64be 980f f1be 389f 36be
00000280: 6f9a 3b3e 02e4 e2bd 73d2 b2be 96f7 8abf
00000290: 5e9a 1e3e 5a99 a03e bdbe 093f 0c02 eebe
000002a0: 66ff 4f3e 9e2e debe f5b2 2a3f ceef f33e
000002b0: 519b 3fbe 3858 10bf 8167 e7be 213c 933f
000002c0: e30e 013e a7c0 61bf 534c 92be de34 793e
000002d0: c305 453f f0ea 803e 8c9d 42bf c512 4a3f
000002e0: f90e e5be 8a32 5d3f f969 0d3f 2193 5bbe
000002f0: cffe 253d efcd 573d a9b0 97bf e43d 5dbe
00000300: f0bc d93d 607f 1f3f 34eb c83e f03b c13e
00000310: 64b8 203e f506 23bf 716e 1cbe 04a9 4dbd
00000320: f854 a73f dac0 d6bd 6326 3dbf 80df 80bd
00000330: dd43 893d 5fa7 523e fc2d 62bd 492a 1d3e
00000340: 51d8 d7be ce9d f8be 49ee c73e 845a d43e
00000350: 1cc0 f5bc 295e 06bf e5b0 7d3f 2321 87be
00000360: add2 753a a96d 5e3f b92c 0f3f 282a 803d
00000370: b8ce c4be 6bf8 403f 2817 c1be cb76 373d
00000380: 8047 0f3f 5e0a cb3e bd91 813d c62e e43d
00000390: 05fa 7b3e f972 3abf 7316 6cbf 3533 483e
000003a0: 7508 20be 1192 4a3f 273c 0f3e 41c4 84be
000003b0: 0c97 d53e 73e0 6f3e afb3 d93e 6d33 e1bc
000003c0: 3bb2 f93e b084 c83b 699a 7abe 4647 ffbe
000003d0: 0b0c bf3d f680 c73e 9d46 ab3e 5848 49bf
000003e0: ef85 163f ec9d 32be 3f48 333f e2bd 42bf
000003f0: c8f4 c8be 98c2 59bf c36a b4be d54d 903f

lstm.bias_ih_l0 f4 [320]
0.11036145 -1.6478626 -1.0758923 -0.8210839 -1.14513 -1.0267344 -0.9111044 -0.86605054
-0.22054787 -0.75754035 -1.109242 -0.08079391 -0.99769276 -0.7681454 -1.0543495 -0.85025465
-1.4583223 -0.9771077 -1.3196901 -0.7590336 -0.9412383 -1.1326604 -0.8481013 -0.44611013
-1.4574074 -0.82831365 -0.610823 -0.117595464 -1.5618446 -1.2162127 -0.5223879 -1.4308901
-1.1165494 -0.98722076 -1.3126858 -0.7713021 -1.5283355 -1.1155763 -0.7279939 -0.5885184
-0.80411583 -1.5471177 -0.6130015 -1.100165 -0.3184995 -1.3399698 -1.3818226 -1.1612135
-0.605241 -0.9232432 -0.9995475 -1.5196087 -1.0192136 -1.3092655 -0.9110421 -1.2434189
-1.2729012 -0.9730064 -0.28912148 -0.18303946 -1.3109087 -0.9716095 -1.175319 -1.4936441
-1.1293638 -1.4054651 -1.5384289 -0.6455109 -0.963375 -0.7414693 -0.7677189 -1.6147022
-1.1593306 -0.39202026 -1.4661417 -0.8063075 -0.591461 -1.3089058 -1.2251605 -0.22941962
-0.15655862 -1.0188662 -0.7455214 -1.2004001 -0.92003345 -0.8353791 -0.5091546 -0.64305985
-0.35210595 -0.59395194 -0.9136872 0.14017504 -0.4954664 0.06340644 -0.7813983 -1.1212258
-0.8849431 -0.71987337 -0.80435437 -0.19270958 -0.94975 -0.6889755 -0.5480953 -0.66968
-0.8884689 -0.70275277 -0.93139577 -0.31431723 -0.8136262 -0.8612389 -1.1028099 -0.9151983
-0.7245886 -0.7968357 -0.5528218 -1.1088582 -1.0291916 -1.1307503 0.026076214 -0.1875126
-1.2551682 -0.8398363 -0.7661754 -0.18999629 -0.26676145 -0.9321262 -0.56671727 -0.29479894
0.08639485 0.29181078 -0.33201382 -0.8620231 -0.39333832 -0.9827303 -0.79905885 -0.8726784
-0.9083756 -1.1051227 -0.83443654 -0.46686974 0.24196474 -0.64766806 -0.63652897 -0.9420835
-0.67184204 -0.66966856 -0.7064985 0.040522188 -0.21378504 -0.92513496 -0.9693998 -1.1340013
-0.6811607 0.026347654 -0.82504475 -0.61175364 -0.77997106 -1.2545002 -1.104853 -0.25102293
0.24893266 0.07073078 -0.06405741 -0.18327285 -0.017043544 0.20603263 0.29861724 -0.32231873
0.20414144 -0.123454936 0.25008994 -0.29279068 -0.12021065 -0.22017749 -0.24723446 0.07000773
0.048374068 -0.15037638 -0.14473623 0.2187654 0.12996344 0.14977953 -0.24981906 0.23807266
0.14243372 0.083663985 0.21887681 -0.27419764 0.048240606 -0.02525327 -0.3610363 0.03392712
0.13243394 0.36355573 0.120658435 -0.021772653 -0.014269009 -0.1587954 0.32131422 0.2922516
0.1637398 0.0635071 -0.31632364 0.13692287 -0.41568738 0.009554878 -0.055790108 -0.24713413
0.20448323 0.32506418 0.38013205 0.16513178 0.2695484 -0.040124234 0.15299235 -0.12072583
-0.1363872 0.23731941 0.25251353 0.26310515 0.29810598 0.07595937 -0.036654923 -0.049608003
0.096094504 0.033391718 0.10768717 0.3978312 -0.2323011 -0.21150388 -0.34922397 -0.11545986
-0.086957045 -0.26725733 0.102975145 -0.2687918 0.18918559 0.14778537 0.055991646 0.17166616
0.5930759 -1.7724923 -1.2363967 -0.8227724 -1.1224134 -1.033271 -0.9313739 -0.70005804
0.34315577 -0.83537185 -0.86684096 0.011339208 -0.8001021 0.06720449 -1.1165233 -0.8307718
00000000: 2f05 e23d 29ed d2bf d7b6 89bf 8e32 52bf
00000010: 9f93 92bf 086c 83bf 233e 69bf 7db5 5dbf
00000020: 4dd7 61be 2aee 41bf a4fb 8dbf 4777 a5bd
00000030: cb68 7fbf 2da5 44bf edf4 86bf 4aaa 59bf
00000040: 4eaa babf bb23 7abf 9beb a8bf 0750 42bf
00000050: fef4 70bf 04fb 90bf 2b1d 59bf 8c68 e4be
00000060: 538c babf 5d0c 54bf e55e 1cbf e4d5 f0bd
00000070: 86ea c7bf dcac 9bbf 37bb 05bf 6827 b7bf
00000080: 17eb 8ebf 80ba 7cbf 1706 a8bf 0e74 45bf
00000090: 7fa0 c3bf 34cb 8ebf cf5d 3abf 24a9 16bf
000000a0: 89da 4dbf f407 c6bf abed 1cbf 35d2 8cbf
000000b0: 5e12 a3be 2184 abbf 90df b0bf a5a2 94bf
000000c0: 13f1 1abf ab59 6cbf 58e2 7fbf 8a82 c2bf
000000d0: 9775 82bf 0396 a7bf 0e3a 69bf 5a28 9fbf
000000e0: 6dee a2bf f316 79bf bb07 94be b26e 3bbe
000000f0: dbcb a7bf 66bb 78bf da70 96bf bb2f bfbf
00000100: fe8e 90bf 48e6 b3bf 3deb c4bf 3440 25bf
00000110: be9f 76bf efd0 3dbf 3a89 44bf 90ae cebf
00000120: f264 94bf e1b6 c8be 88aa bbbf 2b6a 4ebf
00000130: fd69 17bf 3a8a a7bf 0fd2 9cbf faec 6abe
00000140: e750 20be 356a 82bf 7eda 3ebf b6a6 99bf
00000150: 5087 6bbf 68db 55bf f557 02bf 929f 24bf
00000160: 3b47 b4be 3c0d 18bf 68e7 69bf 0c8a 0f3e
00000170: c6ad fdbe 3cdb 813d b809 48bf 5484 8fbf
00000180: a28b 62bf 9f49 38bf 2bea 4dbf a955 45be
00000190: d122 73bf b360 30bf f94f 0cbf 2670 2bbf
000001a0: b372 63bf 9be7 33bf f46f 6ebf 30ee a0be
000001b0: cf49 50bf 277a 5cbf e028 8dbf 704a 6abf
000001c0: a37e 39bf 6dfd 4bbf bb85 0dbf 11ef 8dbf
000001d0: 8dbc 83bf 6dbc 90bf c99d d53c 4e03 40be
000001e0: 5aa9 a0bf 83ff 56bf 1224 44bf 638e 42be
000001f0: f594 88be d39f 6ebf 6214 11bf e3ef 96be
00000200: c8ef b03d 3968 953e b7fd a9be 8cad 5cbf
00000210: a463 c9be 3794 7bbf 1f8f 4cbf da67 5fbf
00000220: 4e8b 68bf a974 8dbf a29d 55bf 8d09 efbe
00000230: 9bc5 773e 93cd 25bf 90f3 22bf 622c 71bf
00000240: d7fd 2bbf 666f 2bbf 16dd 34bf 98fa 253d
00000250: 77ea 5abe a5d5 6cbf 962a 78bf f426 91bf
00000260: 8c60 2ebf 09d7 d73c 2236 53bf e39b 1cbf
00000270: 2fac 47bf 7693 a0bf d36b 8dbf 1486 80be
00000280: 34e8 7e3e 4ddb 903d 8830 83bd e1ab 3bbe
00000290: e79e 8bbc 38fa 523e 5ce4 983e f606 a5be
000002a0: 740a 513e f1d5 fcbd ca0b 803e a9e8 95be
000002b0: 0031 f6bd 3576 61be 082b 7dbe 3660 8f3d
000002c0: e323 463d 44fc 19be bc35 14be 0904 603e
000002d0: 2315 053e ce5f 193e 91d0 7fbe 52c9 733e
000002e0: 25da 113e 0658 ab3d 3e21 603e a263 8cbe
000002f0: f197 453d f2df cebc c0d9 b8be 2af7 0a3d
00000300: c39c 073e fa23 ba3e c51b f73d 905c b2bc
00000310: 90c8 69bc 439b 22be 4c83 a43e 00a2 953e
00000320: 68ab 273e 0310 823d 2cf5 a1be 8235 0c3e
00000330: fad4 d4be 108c 1c3c 2b84 64bd bb10 7dbe
00000340: 0d64 513e d06e a63e aba0 c23e 4e18 293e
00000350: 3f02 8a3e 4f59 24bd 07aa 1c3e 1b3f f7bd
00000360: 16a9 0bbe dc03 733e 7449 813e b8b5 863e
00000370: 59a1 983e 9690 9b3d 7923 16bd c331 4bbd
00000380: 32cd c43d c1c5 083d 178b dc3d 88b0 cb3e
00000390: 57e0 6dbe 7994 58be 7ccd b2be 3876 ecbd
000003a0: 8916 b2bd f4d5 88be a2e4 d23d 149f 89be
000003b0: deb9 413e 0c55 173e 7f57 653d 41c9 2f3e
000003c0: d2d3 173f 07e1 e2bf 3f42 9ebf 36a1 52bf
000003d0: 3eab 8fbf 3942 84bf 856e 6ebf 0137 33bf
000003e0: 1db2 af3e eeda 55bf 4ae9 5dbf 16c8 393c
000003f0: 7ed3 4cbf 82a2 893d 3cea 8ebf 76ad 54bf

lstm.bias_hh_l0 f4 [320]
0.14288168 -1.6373334 -1.2438018 -0.88141 -1.1664937 -1.0407829 -0.8184305 -0.9557168
-0.06087673 -0.7215414 -0.9579631 -0.08867721 -1.0552363 -0.86689246 -0.9917638 -0.8363483
-1.5551803 -0.95442283 -1.1548468 -0.7966864 -0.9856562 -1.151761 -0.8589742 -0.47381708
-1.4195956 -0.81411403 -0.7499332 -0.17544575 -1.5846803 -1.2137276 -0.59886503 -1.2504762
-1.1708425 -0.83687675 -1.2683172 -0.6741173 -1.4543965 -1.0392052 -0.77300024 -0.77707595
-0.866688 -1.6038842 -0.5802016 -1.0981079 -0.117961854 -1.2569977 -1.372277 -1.1902393
-0.64531296 -0.96768 -1.055874 -1.4838531 -1.1781023 -1.4215665 -0.99796724 -1.1130722
-1.2783132 -1.0947754 -0.25860688 -0.10644112 -1.156083 -1.0942167 -1.2036592 -1.4532886
-1.2351682 -1.3379581 -1.6571671 -0.77141184 -1.0002323 -0.61770743 -0.6491506 -1.6358805
-1.1070311 -0.2465411 -1.4539831 -0.9253971 -0.7770274 -1.3028431 -1.2738739 -0.36282262
-0.1581483 -0.96024346 -0.81579095 -1.2685548 -0.8621853 -0.73383164 -0.43002236 -0.71553457
-0.34144798 -0.49646276 -1.1043947 0.09983657 -0.38685194 0.2118935 -0.6573307 -1.1405693
-0.96785 -0.609208 -0.8605289 -0.2975434 -0.88737375 -0.5560947 -0.73328614 -0.85551697
-1.0584993 -0.5971468 -0.9150853 -0.18900548 -0.9007929 -0.8361145 -1.236993 -0.94197905
-0.6179676 -0.8875003 -0.5746911 -1.2250323 -0.93871135 -1.0432463 -0.0028949662 -0.15653913
-1.3322995 -0.8181268 -0.7832199 -0.13412812 -0.35044324 -0.9298461 -0.65511215 -0.34266862
0.18754408 0.28402987 -0.47753736 -0.8961356 -0.45257464 -0.86366767 -0.8674752 -1.037155
-1.0502297 -0.9721627 -0.8853863 -0.509394 0.19562273 -0.62743825 -0.70835036 -0.892155
-0.76555383 -0.77585703 -0.73421407 -0.11933797 -0.37784365 -0.93560165 -1.043097 -1.1545229
-0.7017525 -0.005958116 -0.99102426 -0.7145738 -0.6227627 -1.1304309 -1.1565417 -0.2844036
0.18879063 -0.032450743 -0.018895397 -0.1152245 -0.021919936 0.13715038 0.21949814 -0.28016284
0.3448744 -0.13479385 0.28130248 -0.40370584 -0.266118 -0.28139123 -0.22018132 0.14351204
-0.031249607 -0.019525511 0.027324798 0.33136952 0.09099403 0.21769385 -0.15465866 0.37979975
-0.02290226 0.14079267 0.18672608 -0.10439541 0.029983424 0.13369271 -0.24026603 -0.08247919
0.14061254 0.19813654 0.11832025 -0.08915618 0.027824031 -0.026849953 0.20056617 0.33626616
0.15884253 0.10405796 -0.351925 0.20512155 -0.38950542 0.024727488 0.011516684 -0.17783862
0.39218017 0.21863963 0.19315822 0.02106251 0.14571734 -0.12429469 0.12579545 -0.124276765
-0.19218662 0.06970656 0.34010553 0.28254458 0.22573058 0.059689235 -0.12787797 -0.062414665
0.17909746 0.09643258 0.05429656 0.18097095 -0.25322485 -0.3819767 -0.2029592 -0.22483522
-0.10632044 -0.38186902 -0.10886781 -0.23910284 0.20159192 0.11519299 0.05979246 0.19532396
0.55009055 -1.9668133 -1.3053648 -1.0192714 -1.281369 -0.9817879 -0.9644825 -0.6830637
0.2741678 -0.7556757 -0.91023505 -0.08173324 -0.8561595 -0.045536403 -1.1114455 -0.723794
00000000: 934f 123e 2494 d1bf e634 9fbf 16a4 61bf
00000010: aa4f 95bf 6038 85bf a984 51bf dba9 74bf
00000020: e159 79bd f0b6 38bf 123d 75bf 669c b5bd
00000030: fc11 87bf aaec 5dbf 3be4 7dbf ec1a 56bf
00000040: 2610 c7bf 0e55 74bf 05d2 93bf a4f3 4bbf
00000050: f753 7cbf e86c 93bf bce5 5bbf 2798 f2be
00000060: 4fb5 b5bf c769 50bf 9ffb 3fbf 0da8 33be
00000070: ced6 cabf 6d5b 9bbf 384f 19bf 9b0f a0bf
00000080: 2bde 95bf 8e3d 56bf 3858 a2bf f492 2cbf
00000090: aa29 babf ad04 85bf 58e3 45bf 73ee 46bf
000000a0: 44df 5dbf 144c cdbf 1888 14bf cd8e 8cbf
000000b0: fc95 f1bd 4de5 a0bf c6a6 afbf c359 98bf
000000c0: 3b33 25bf e0b9 77bf e126 87bf e6ee bdbf
000000d0: 0ecc 96bf e4f5 b5bf c87a 7fbf 2679 8ebf
000000e0: c49f a3bf 9a21 8cbf 1f68 84be cdfd d9bd
000000f0: 87fa 93bf 4b0f 8cbf 8111 9abf 5c05 babf
00000100: fe19 9ebf 3642 abbf 0d1e d4bf 3f7b 45bf
00000110: 9d07 80bf 1322 1ebf bc2e 26bf 8864 d1bf
00000120: 32b3 8dbf 4575 7cbe 1e1c babf d3e6 6cbf
00000130: 45eb 46bf 90c3 a6bf 4d0e a3bf e3c3 b9be
00000140: a1f1 21be 84d2 75bf add7 50bf 0160 a2bf
00000150: 2db8 5cbf 64dc 3bbf e42b dcbe 462d 37bf
00000160: 45d2 aebe 5e30 febe ce5c 8dbf 1e77 cc3d
00000170: 7511 c6be 9cfa 583e d346 28bf 2dfe 91bf
00000180: 05c5 77bf 0ef5 1bbf 9f4b 5cbf 9c57 98be
00000190: ed2a 63bf 395c 0ebf a4b8 3bbf 2903 5bbf
000001a0: e87c 87bf 9dde 18bf 0843 6abf a78a 41be
000001b0: 5d9a 66bf 9a0b 56bf c955 9ebf 8a25 71bf
000001c0: 2033 1ebf 3833 63bf f51e 13bf dccd 9cbf
000001d0: 634f 70bf 1889 85bf 79b9 3dbb cb4b 20be
000001e0: ca88 aabf c270 51bf 1981 48bf e258 09be
000001f0: 4c6d b3be 650a 6ebf 6eb5 27bf 4372 afbe
00000200: 8e0b 403e 5d6c 913e c77f f4be 2569 65bf
00000210: ddb7 e7be 5319 5dbf db12 5ebf 7fc1 84bf
00000220: ed6d 86bf a8df 78bf ada8 62bf a567 02bf
00000230: 5351 483e cb9f 20bf 7356 35bf 4564 64bf
00000240: 56fb 43bf 919e 46bf 74f5 3bbf 7767 f4bd
00000250: b974 c1be 9783 6fbf 3484 85bf 68c7 93bf
00000260: 0da6 33bf 4d3c c3bb c4b3 7dbf 4fee 36bf
00000270: 606d 1fbf f6b1 90bf 8f09 94bf 599d 91be
00000280: 5552 413e 12eb 04bd 85ca 9abc d3fa ebbd
00000290: 7091 b3bc 2671 0c3e 1fc4 603e 8171 8fbe
000002a0: 6193 b03e 6607 0abe e106 903e 88b2 cebe
000002b0: 9e40 88be 8312 90be 3677 61be d2f4 123e
000002c0: 2dff ffbc f7f3 9fbc 41d8 df3c 44a9 a93e
000002d0: 145b ba3d 23eb 5e3e d75e 1ebe 1d75 c23e
000002e0: 859d bbbc f42b 103e 1f35 3f3e 43cd d5bd
000002f0: cc9f f53c bee6 083e 4c08 76be d9ea a8bd
00000300: bcfc 0f3e 4ee4 4a3e e351 f23d 8497 b6bd
00000310: 39ef e33c 6ff4 dbbc 3861 4d3e 142b ac3e
00000320: 9ea7 223e 571c d53d 832f b4be 620b 523e
00000330: 416d c7be 4d91 ca3c 79b0 3c3c 541b 36be
00000340: d7cb c83e 11e3 5f3e 45cb 453e 498b ac3c
00000350: ed36 153e 378e febd 86d0 003e d184 febd
00000360: 92cc 44be 50c2 8e3d 5022 ae3e afa9 903e
00000370: eb25 673e b37c 743d 71f2 02be 85a6 7fbd
00000380: 5365 373e 727e c53d 1266 5e3d 7350 393e
00000390: b0a6 81be 7392 c3be 89d4 4fbe 343b 66be
000003a0: 88be d9bd 5684 c3be 16f6 debd 60d7 74be
000003b0: 1d6e 4e3e 4dea eb3d f0e8 743d 0103 483e
000003c0: bcd2 0c3f 8ac0 fbbf 3216 a7bf 7c77 82bf
000003d0: e603 a4bf 7456 7bbf 53e8 76bf 43dd 2ebf
000003e0: b95f 8c3e f673 41bf 2a05 69bf c263 a7bd
000003f0: 452d 5bbf 6184 3abd d943 8ebf 904a 39bf

lstm.weight_ih_l1 f4 [320, 80]
0.23193654 0.18895102 -0.14130569 -0.0716941 0.21932212 0.04670303 -0.22019812 -0.40208387
0.075626254 -0.45357734 0.4639008 0.54473424 0.11328326 -0.6441778 -0.20519559 0.72555214
0.0033833678 -0.25803465 0.13039996 0.5067454 0.23213147 0.092397 -0.09176596 0.091142304
-0.14681348 0.62651765 0.47660184 -0.13017017 0.27710104 0.30293208 -0.36566162 0.27099594
-0.14030969 0.32332438 0.14060438 -0.32428464 0.29905945 -0.37788847 -0.35352343 -0.36273268
0.2199927 0.14716302 -0.026620075 -0.2007619 0.6705302 0.22039182 -0.114312746 0.04362583
-0.29759312 -0.46597302 0.71837217 -0.123143 -0.24515611 -0.048891563 0.25116438 -0.42363292
-0.31176263 0.42294133 0.44992656 0.018114205 -0.0557586 0.3899612 -0.4166087 -0.22059155
0.1340098 0.29552206 -0.25227016 -0.18431522 0.12376144 -0.5485656 -0.4232159 -0.13141105
-0.009569494 0.16566062 -0.049418725 -0.13443388 0.15915887 -0.20488414 0.639142 0.041563604
0.41380614 -0.045581866 0.019725733 -0.3140398 -0.16468242 0.15886247 -0.17451903 -0.2530085
0.13649131 0.03352653 0.23382759 0.566188 0.05456367 -0.10493803 -0.058495563 0.4830939
-0.081636585 0.03588668 -0.17500623 0.112077214 0.23833962 -0.24069776 0.006497038 0.17142734
-0.026030572 0.28086165 -0.14047843 -0.062492955 -0.23693518 -0.42025986 -0.27880386 0.31893787
-0.006833765 0.22541845 0.009194718 -0.414138 0.31406966 -0.21985191 -0.086146 -0.28331542
0.543958 -0.0024390423 -0.13355576 -0.14836651 0.39287356 -0.07059976 -0.018220007 0.3529297
-0.6124548 -0.44519097 0.1467019 0.006822752 0.04632292 0.23173644 0.33927134 -0.33413774
0.18248619 0.3283098 -0.012445638 0.2917468 -0.60194004 0.39142472 -0.0582593 0.14210413
-0.11179505 -0.02118789 -0.0127387745 -0.24066709 0.31728354 -0.2380409 -0.29480925 -0.33069122
0.2032499 0.4939686 -0.28914398 -0.15732092 -0.11109385 0.03353213 0.19275734 0.08031546
1.438563 -0.34710953 0.099144384 0.105309956 -0.005527128 -0.35437143 -0.1607994 0.33830857
1.1914711 0.07162386 -0.51719904 1.2314208 0.08195847 -0.57791764 -0.38476264 -0.25735244
-0.24012254 0.20969145 0.05792835 -0.5220334 -0.2858046 0.16252412 0.19080266 -0.5675854
0.32467598 -0.4350684 -0.26384133 -1.2605541 0.1340753 -0.0119953845 0.37169093 0.032547917
-0.067103244 -0.58864886 0.03318888 -0.20675026 0.3351926 0.17037173 -0.27306095 -0.44552135
-0.36128786 0.06192529 0.2642368 -0.35157707 0.5828447 0.31043008 -0.1165128 -0.253744
-0.5395251 -0.7048707 -0.36996064 -0.04199832 -0.15910482 0.095406614 -0.3774114 0.34720922
0.3842141 -0.2637121 -0.13046663 1.0612805 -0.26546887 -0.3837603 -0.025768373 -0.10812754
-0.111985736 0.04184637 0.10510327 -0.6551388 -0.06423227 0.5821505 0.23595719 -0.11585739
0.027771497 0.9132629 -0.37963018 -0.103246205 -0.35889894 -0.0807805 -0.46969035 1.2616173
-1.236923 -0.23319165 0.11925772 -0.1987659 0.4820387 0.43678427 -0.80685174 -0.31015557
-0.94171745 -0.15556431 0.5412287 0.40834138 0.2548515 -0.7785759 0.6521059 0.45040905
00000000: c680 6d3e 607c 413e 70b2 10be 5bd4 92bd
00000010: fa95 603e ad4b 3f3d 9e7b 61be f0dd cdbe
00000020: f0e1 9a3d 4a3b e8be 6884 ed3e b473 0b3f
00000030: 0e01 e83d d6e8 24bf cb1e 52be c9bd 393f
00000040: 7ebb 5d3b 1e1d 84be 9187 053e 11ba 013f
00000050: dfb3 6d3e a33a bd3d cbef bbbd d1a8 ba3d
00000060: 4656 16be 7663 203f 2805 f43e 544b 05be
00000070: 30e0 8d3e ea19 9b3e 0038 bbbe fbbf 8a3e
00000080: 58ad 0fbe c68a a53e 98fa 0f3e a308 a6be
00000090: 521e 993e 997a c1be 0601 b5be 19b8 b9be
000000a0: c445 613e e7b1 163e 5812 dabc 8794 4dbe
000000b0: dea7 2b3f 65ae 613e cd1c eabd 00b1 323d
000000c0: 205e 98be 0494 eebe 3de7 373f 6632 fcbd
000000d0: 340a 7bbe 8542 48bd 9e98 803e 6ae6 d8be
000000e0: 5a9f 9fbe c48b d83e c65c e63e 3e64 943c
000000f0: 2163 64bd ffa8 c73e bc4d d5be c0e2 61be
00000100: dd39 093e ab4e 973e 8e29 81be 21bd 3cbe
00000110: a376 fd3d cc6e 0cbf c1af d8be 9e90 06be
00000120: 5ec9 1cbc f0a2 293e 4a6b 4abd 09a9 09be
00000130: 8bfa 223e 26cd 51be cf9e 233f 993e 2a3d
00000140: 66de d33e 0db4 3abd dc97 a13c d3c9 a0be
00000150: 82a2 28be d8ac 223e 1eb5 32be 558a 81be
00000160: 61c4 0b3e 1d53 093d 8070 6f3e b2f1 103f
00000170: 287e 5f3d c0e9 d6bd 0b99 6fbd 1558 f73e
00000180: 1531 a7bd e9fd 123d d534 33be bd88 e53d
00000190: 4d0f 743e 7979 76be 1be5 d43b a68a 2f3e
000001a0: 113e d5bc 19cd 8f3e 94d9 0fbe 9df8 7fbd
000001b0: 239f 72be 4d2c d7be 61bf 8ebe d34b a33e
000001c0: c7ed dfbb 18d4 663e 71a5 163c e509 d4be
000001d0: bdcd a03e dc20 61be 506d b0bd b80e 91be
000001e0: d540 0b3f 57d8 1fbb d7c2 08be 64ed 17be
000001f0: b926 c93e 9b96 90bd 2042 95bc 34b3 b43e
00000200: d6c9 1cbf 12f0 e3be 0639 163e 6491 df3b
00000210: 1abd 3d3d 514c 6d3e f9b4 ad3e 1a14 abbe
00000220: a9dd 3a3e 3918 a83e cae8 4bbc d65f 953e
00000230: be18 1abf d268 c83e 4ea1 6ebd bf83 113e
00000240: cef4 e4bd 3a92 adbc 4bb6 50bc 6f71 76be
00000250: fd72 a23e fec0 73be 3df1 96be 5c50 a9be
00000260: be20 503e 74e9 fc3e ae0a 94be bc18 21be
00000270: 2c85 e3bd fd58 093d 2e62 453e 6f7c a43d
00000280: d522 b83f 57b8 b1be 360c cb3d bfac d73d
00000290: e91c b5bb 2c70 b5be 99a8 24be c836 ad3e
000002a0: 2082 983f 88af 923d 2867 04bf 329f 9d3f
000002b0: d8d9 a73d 69f2 13bf 9cff c4be b3c3 83be
000002c0: afe2 75be 5bb9 563e 4746 6d3d fba3 05bf
000002d0: fb54 92be b96c 263e c661 433e 474d 11bf
000002e0: ee3b a63e 49c1 debe 3616 87be d659 a1bf
000002f0: 094b 093e 4a88 44bc 464e be3e f750 053d
00000300: 6d6d 89bd b1b1 16bf 10f1 073d 57b6 53be
00000310: 5d9e ab3e ed75 2e3e a5ce 8bbe 601b e4be
00000320: b9fa b8be 5fa5 7d3d 0c4a 873e e901 b4be
00000330: 4f35 153f b1f0 9e3e 439e eebd bcea 81be
00000340: 511e 0abf 6872 34bf 7b6b bdbe 6e06 2cbd
00000350: 60ec 22be 8b64 c33d 113c c1be 68c5 b13e
00000360: b6b7 c43e 4605 87be 0b99 05be 0ad8 873f
00000370: 89eb 87be 3b7c c4be 3218 d3bc f971 ddbd
00000380: c758 e5bd 1967 2b3d 6240 d73d 2db7 27bf
00000390: 358c 83bd d107 153f c39e 713e a446 edbd
000003a0: 0d81 e33c 99cb 693f e35e c2be bf72 d3bd
000003b0: 9ac1 b7be 3f70 a5bd 417b f0be ad7c a13f
000003c0: 7e53 9ebf cbc9 6ebe 643d f43d 4a89 4bbe
000003d0: c7cd f63e 30a2 df3e d68d 4ebf b6cc 9ebe
000003e0: 6514 71bf 404c 1fbe f78d 0a3f 1f12 d13e
000003f0: e57b 823e c050 47bf 6af0 263f 049c e63e

lstm.weight_hh_l1 f4 [320, 80]
0.21332264 0.36556423 -0.0121138515 0.21299188 0.3005952 0.23350047 -0.15698984 0.08718053
0.29702324 -0.39831904 0.1328285 0.17491226 -0.53471875 -0.4374033 0.4813499 0.1388059
-0.2768842 0.4143784 0.66619235 0.01393433 0.13712524 -0.12308044 -0.42535943 -0.046677526
0.22068387 0.12048331 0.24662642 0.065660894 -1.0506852 0.23667344 0.3213045 -0.03486241
0.20999648 -0.015028998 0.22349319 -0.1313 -0.5998294 0.3699769 -0.34225672 0.16437587
0.11882166 -0.22007705 -0.34842834 0.2535994 -0.03632484 0.115833 0.29116464 -0.029674754
-0.22935943 0.20130792 0.15790278 -0.28575858 -0.01955042 -0.26798546 0.07540433 -0.3556236
0.65507734 0.023537405 -0.2613902 -0.06860073 -0.102702856 0.31414062 0.45622197 -0.13692996
-0.04266655 -0.44679716 0.1382636 -0.22895451 0.34936887 0.16174117 0.060415175 -0.06732036
-0.3507726 0.43981397 0.09385483 0.28264314 0.15969588 -0.4564771 -0.014083508 0.6475348
0.11289642 -0.13311939 0.30523863 -0.48504868 0.16027918 0.06108257 -0.06703181 1.023885
1.2833507 -0.09765885 0.6415829 0.38122618 -0.18228386 0.26076525 0.85298723 0.041296188
-0.9586768 0.37445936 0.83094454 0.18724158 0.24424589 -0.51106524 -0.042338267 0.5921704
0.18250006 -0.14018534 0.37261295 -0.37219647 -0.16786528 -0.043291043 -0.53583217 -0.11928856
-0.077258766 -0.013457688 0.20672019 0.17795663 -1.2723732 0.36964354 0.08609753 0.008742215
-0.05581223 -0.95849085 -0.42573246 0.049338117 -0.014019296 0.1454621 0.50067097 -0.11620484
-0.36921665 -0.67987823 -0.18304317 -0.3073534 -0.035258614 -0.2551256 -0.10462126 0.04725064
0.31005317 0.31054848 0.2169312 0.18684426 0.28468764 0.13417624 0.29988414 -0.30754203
-0.5615995 0.12676269 0.74717295 0.32777047 0.12406507 0.21603157 0.072840944 -0.15185192
-0.069390334 0.8054145 0.15801676 0.0032408736 0.5944861 0.16744162 -0.3829413 0.9774635
0.28979194 0.19018161 0.135918 0.7524695 0.16976427 0.37024003 -0.20105398 0.25608504
-0.7706492 0.08074479 0.14573 -0.04792812 0.69802535 0.6015465 0.31359482 -0.030308206
-0.34077248 0.18104795 0.011683156 0.13179539 0.38461173 -0.1976463 -0.47021997 -0.2935502
-0.06963038 -0.29737473 0.32128912 0.40706906 0.32715133 0.012442989 0.36057785 0.44995782
-0.22622572 0.24381629 0.033850823 -0.27431306 -0.116449274 -0.055094905 -0.16717938 0.06367408
0.01339506 0.39703774 0.8370393 0.15329967 -0.0069262837 -0.11761782 -0.009952454 0.4556756
0.078666575 -0.0782197 0.42825612 0.103847675 -0.36985183 0.40756965 0.124187805 -0.11547534
0.07892924 0.11028609 -0.8139509 -0.18096736 -0.6807402 -0.10721842 0.14653781 -0.07580898
0.47001365 -0.7796987 0.30840966 -0.5639142 1.3821692 -0.79710126 -0.33792642 -0.2672718
-0.18293382 -0.995878 0.0006324479 0.15104361 -0.10298834 -0.7953874 0.25680265 0.8985841
-0.1719055 0.33306858 0.7294986 0.5488557 0.43817157 -0.36719176 -0.1651882 0.8198279
0.24742585 -0.5973557 1.7386386 -0.38937077 0.089588016 -0.9116051 0.7694627 -0.30440503
00000000: 4071 5a3e 3c2b bb3e 2d79 46bc 8b1a 5a3e
00000010: 9de7 993e bf1a 6f3e f2c1 20be b58b b23d
00000020: 6e13 983e 79f0 cbbe 3204 083e 331c 333e
00000030: 54e3 08bf 53f3 dfbe 7e73 f63e 2223 0e3e
00000040: c4c3 8dbe 6829 d43e 958b 2a3f d14c 643c
00000050: 8f6a 0c3e 9911 fcbd b6c8 d9be ef30 3fbd
00000060: f4fa 613e f4bf f63d a38b 7c3e 3879 863d
00000070: da7c 86bf 865a 723e 0682 a43e e3cb 0ebd
00000080: 5109 573e 303c 76bc 66db 643e 8273 06be
00000090: 6b8e 19bf 9d6d bd3e 463c afbe 2652 283e
000000a0: c558 f33d e15b 61be 3365 b2be c8d7 813e
000000b0: 5bc9 14bd da39 ed3d 8813 953e 7818 f3bc
000000c0: 33dd 6abe aa23 4e3e 44b1 213e f34e 92be
000000d0: 3428 a0bc 6435 89be 966d 9a3d 4c14 b6be
000000e0: 26b3 273f 84d1 c03c f0d4 85be 8a7e 8cbd
000000f0: e055 d2bd 0ad7 a03e ed95 e93e 5e37 0cbe
00000100: 1fc3 2ebd 99c2 e4be f994 0d3e 0d73 6abe
00000110: 7ae0 b23e 7a9f 253e e775 773d 42df 89bd
00000120: 7798 b3be 4c2f e13e f636 c03d 9ab6 903e
00000130: 5187 233e 5eb7 e9be 84be 66bc d7c4 253f
00000140: 3d36 e73d 7350 08be 3d48 9c3e 4d58 f8be
00000150: 3a20 243e b831 7a3d f947 89bd aa0e 833f
00000160: d644 a43f 5d01 c8bd c73e 243f 1430 c33e
00000170: 9fa8 3abe 0683 853e 5f5d 5a3f 3126 293d
00000180: d86b 75bf 23b9 bf3e c8b8 543f 42bc 3f3e
00000190: 981b 7a3e 2cd5 02bf e46a 2dbd 7b98 173f
000001a0: 4ce1 3a3e bf8c 0fbe 20c7 be3e 8990 bebe
000001b0: e0e4 2bbe f351 31bd 4c2c 09bf 8f4d f4bd
000001c0: d839 9ebd a27d 5cbc 75ae 533e 433a 363e
000001d0: 20dd a2bf eb41 bd3e e753 b03d 823b 0f3c
000001e0: 5d9b 64bd a85f 75bf 9bf9 d9be c416 4a3d
000001f0: 30b1 65bc 04f4 143e f92b 003f cefc edbd
00000200: f709 bdbe 800c 2ebf ab6f 3bbe 6d5d 9dbe
00000210: 566b 10bd d39f 82be ac43 d6bd e389 413d
00000220: 4abf 9e3e 3600 9f3e 3623 5e3e 1a54 3f3e
00000230: 94c2 913e 7f65 093e 6a8a 993e 2676 9dbe
00000240: fcc4 0fbf 14ce 013e ba46 3f3f 88d1 a73e
00000250: d415 fe3d 6137 5d3e a22d 953d 127f 1bbe
00000260: 851c 8ebd a52f 4e3f 25cf 213e d664 543b
00000270: 3e30 183f d175 2b3e e210 c4be 0c3b 7a3f
00000280: 9c5f 943e f8be 423e 172e 0b3e d7a1 403f
00000290: afd6 2d3e 1a90 bd3e 18e1 4dbe 941d 833e
000002a0: 4449 45bf 865d a53d 3f3a 153e 4750 44bd
000002b0: cab1 323f f4fe 193f 808f a03e ea48 f8bc
000002c0: bb79 aebe a264 393e b56a 3f3c 5ff5 063e
000002d0: d4eb c43e cb63 4abe acc0 f0be 364c 96be
000002e0: 5f9a 8ebd 8041 98be 0280 a43e 5b6b d03e
000002f0: 6180 a73e aedd 4b3c a99d b83e df60 e63e
00000300: b7a7 67be faaa 793e 29a7 0a3d c372 8cbe
00000310: f57c eebd 32ab 61bd 1231 2bbe 8e67 823d
00000320: f476 5b3c 8848 cb3e 3548 563f 97fa 1c3e
00000330: e1f5 e2bb 9de1 f0bd 9e0f 23bc 504e e93e
00000340: f11b a13d a631 a0bd 6344 db3e 17ae d43d
00000350: 385d bdbe f8ac d03e 2d56 fe3d 567e ecbd
00000360: a7a5 a13d acdd e13d 165f 50bf 824f 39be
00000370: fd44 2ebf 5595 dbbd 020e 163e bd41 9bbd
00000380: a1a5 f03e 569a 47bf dfe7 9d3e ae5c 10bf
00000390: ecea b03f d40e 4cbf b104 adbe d9d7 88be
000003a0: 0153 3bbe dcf1 7ebf dcca 253a 2dab 1a3e
000003b0: 8deb d2bd 829e 4bbf a37b 833e 9c09 663f
000003c0: ff07 30be f787 aa3e 6cc0 3a3f cf81 0c3f
000003d0: 0658 e03e 8f00 bcbe 1827 29be 3ee0 513f
000003e0: 345d 7d3e 4eec 18bf b68b de3f 9b5b c7be
000003f0: ec79 b73d f45e 69bf 82fb 443f fada 9bbe

lstm.bias_ih_l1 f4 [320]
-1.4529127 -0.9245006 -0.6084754 -1.0007755 -0.6160533 -0.55305505 -1.0348005 -0.40674967
-0.7461366 -1.1836007 -0.28519824 -1.3010683 -0.80151474 -0.1587069 -0.7734773 -1.1878196
-0.0722855 -0.72167796 -0.8577765 -0.9691329 -1.077249 -0.47255212 -1.6324699 -0.4108213
-0.554551 -0.82936746 -0.89303726 -0.9104755 -0.67910373 -1.0810535 -0.27502474 -0.14265709
-1.3956707 -1.6726538 -0.96360946 -0.70607615 -0.8235041 -0.8033162 -1.0871644 -1.0080491
-1.0832334 -0.24737193 -0.39306128 -0.49738127 -0.9908175 -0.6596411 -1.0157272 -1.3148768
-1.5436326 -0.9670818 -1.3928149 -0.82349485 -1.2896113 -1.3564867 -0.6917723 -1.0231001
-1.4558134 -0.79984593 -1.0472574 -0.9576648 -0.89262646 -1.1212094 -1.1591189 -1.0459412
-0.63775617 -0.97052735 -1.2660583 -1.1153497 -0.23892152 -0.8053423 -0.9967865 -1.5052665
-1.4635984 -1.4196742 -0.75251526 -1.3061409 -1.2493365 -1.0215492 -0.29355854 -0.50082767
-0.94744503 -0.66317976 -0.6017113 -1.1370085 -0.38446063 -0.35626927 -0.43827954 -0.4049333
-0.816806 -0.49649453 0.16215055 -1.194155 -1.3034092 0.82195425 -0.48018703 -0.8309875
-0.29665932 0.101081915 -0.54651403 -0.61590624 -0.4715674 -0.5779126 -0.9727807 -0.41784614
-0.32817248 -0.43762434 -0.41081753 -1.005022 -1.3442158 -1.3727356 -0.49741602 -0.88475883
-0.976738 -1.1297301 -0.30245394 -0.28852588 -1.1374965 -0.48897657 -0.28314975 -0.51689523
-0.552291 -1.1833898 -1.2396752 -0.38769853 -0.77903277 -0.3806561 -0.28009742 -0.9006831
-0.84837586 -0.43640357 -0.96377414 -0.5259446 -0.7519017 -0.26595813 -0.63773847 -0.8830833
-1.1612339 -0.6374735 -1.0334649 -0.3407624 -0.3736234 -0.2065093 -0.52897567 -0.5126657
-1.3798492 -0.99755275 0.23195092 -0.764847 -0.20589523 -1.767652 -1.1618407 -0.8761564
-0.7077921 -0.8653786 -0.436515 -0.7065883 -1.2814784 -0.9244345 -0.444873 -0.64099336
-0.026805002 0.019943 0.15652709 0.10326801 -0.059184454 -0.2079363 0.08275545 -0.1357866
-0.19643308 0.06460114 0.20157304 -0.11242746 0.23783593 0.4828885 -0.075967304 0.082176015
0.19780926 0.06904163 -0.13764673 0.069849774 -0.07923083 0.12133701 0.004371755 0.065410234
0.1276905 0.06424399 -0.2215931 0.18994161 0.10845757 -0.07452744 0.025772305 0.28971332
0.08113468 0.20804591 0.03622085 0.15910412 0.19749545 0.63687205 -0.08569711 0.099777386
-0.05959885 0.08409006 -0.004254386 -0.030996611 0.047154862 0.13253249 0.087935254 -0.038138736
0.092034064 0.027779974 0.11247044 0.100099236 -0.09083568 0.0003226375 -0.114826486 0.051639747
-0.005357434 0.16945149 -0.09205795 -0.068752736 0.021224359 0.0610806 0.024873557 -0.004682699
-0.06266853 -0.060346685 0.22760531 0.0050988016 0.3349927 -0.3401735 -0.38531992 -0.03592874
-0.10357864 0.07170762 0.11990093 -0.011426105 -0.044321872 -0.034701664 0.21931304 -0.13503848
-1.4067585 -1.1377977 -0.8698329 -0.99017364 -0.6700074 -0.54189485 -1.038606 -0.2917224
-0.6853064 -1.2009606 0.25469494 -1.251205 -0.64330786 -1.144251 -0.6711595 -1.161475
00000000: 0bf9 b9bf 12ac 6cbf 0bc5 1bbf 6919 80bf
00000010: abb5 1dbf 0495 0dbf 5874 84bf 7e41 d0be
00000020: cf02 3fbf 3a80 97bf 8105 92be 6889 a6bf
00000030: 1230 4dbf 1084 22be 9c02 46bf 790a 98bf
00000040: 6c0a 94bd e3bf 38bf 3e97 5bbf 1819 78bf
00000050: 4ce3 89bf 5af2 f1be c6f4 d0bf 2b57 d2be
00000060: 0ef7 0dbf 6d51 54bf 179e 64bf ec14 69bf
00000070: bed9 2dbf f65f 8abf 0bd0 8cbe b314 12be
00000080: 56a5 b2bf 8519 d6bf 1caf 76bf 68c1 34bf
00000090: 2ad1 52bf 21a6 4dbf 3428 8bbf c107 81bf
000000a0: 64a7 8abf 114f 7dbe 543f c9be c2a8 febe
000000b0: 37a6 7dbf 3dde 28bf 5903 82bf e24d a8bf
000000c0: c195 c5bf ac92 77bf c247 b2bf 8fd0 52bf
000000d0: fc11 a5bf 5ba1 adbf fd17 31bf f2f4 82bf
000000e0: 1858 babf b4c2 4cbf 880c 86bf 8529 75bf
000000f0: 2b83 64bf ca83 8fbf 025e 94bf 67e1 85bf
00000100: fd43 23bf 7b74 78bf 330e a2bf c7c3 8ebf
00000110: d8a7 74be ea2a 4ebf 662d 7fbf 93ac c0bf
00000120: 3157 bbbf e2b7 b5bf d7a4 40bf a02f a7bf
00000130: 42ea 9fbf 20c2 82bf 4e4d 96be 3e36 00bf
00000140: c28b 72bf 26c6 29bf c009 1abf 7f89 91bf
00000150: 06d8 c4be ed68 b6be 2d66 e0be 6b53 cfbe
00000160: 331a 51bf 8834 febe cb0a 263e 12da 98bf
00000170: 1dd6 a6bf 986b 523f 13db f5be 99bb 54bf
00000180: bbe3 97be 0904 cf3d 58e8 0bbf 08ac 1dbf
00000190: 4871 f1be 15f2 13bf 2808 79bf eeef d5be
000001a0: 3906 a8be 4c10 e0be ad56 d2be 90a4 80bf
000001b0: 430f acbf cdb5 afbf 50ad febe 8e7f 62bf
000001c0: 800b 7abf ff9a 90bf 3edb 9abe aab9 93be
000001d0: 7c99 91bf 235b fabe 01f9 90be 3f53 04bf
000001e0: f162 0dbf 5179 97bf adad 9ebf 6c80 c6be
000001f0: b16e 47bf 5be5 c2be ee68 8fbe 2b93 66bf
00000200: 292f 59bf 4a70 dfbe e7b9 76bf 4ea4 06bf
00000210: a17c 40bf aa2b 88be d442 23bf bf11 62bf
00000220: 50a3 94bf 7731 23bf 9448 84bf 6978 aebe
00000230: 914b bfbe 2d77 53be f36a 07bf 0f3e 03bf
00000240: e69e b0bf 9e5f 7fbf 8b84 6d3e 03cd 43bf
00000250: 33d6 52be 6c42 e2bf 32b7 94bf c94b 60bf
00000260: dd31 35bf 7489 5dbf e57e dfbe f9e2 34bf
00000270: 7c07 a4bf bda7 6cbf 65c6 e3be 2418 24bf
00000280: 2a96 dbbc 815f a33c a348 203e 2e7e d33d
00000290: 666b 72bd 41ed 54be b07b a93d a40b 0bbe
000002a0: c125 49be 9a4d 843d 2a69 4e3e 5e40 e6bd
000002b0: 438b 733e 293d f73e bf94 9bbd e64b a83d
000002c0: 838e 4a3e b365 8d3d 44f3 0cbe 660d 8f3d
000002d0: c643 a2bd 8a7f f83d f040 8f3b cdf5 853d
000002e0: 4cc1 023e 5a92 833d 4de9 62be 0e80 423e
000002f0: 011f de3d d8a1 98bd 7120 d33c 4e55 943e
00000300: f029 a63d fd09 553e 505c 143d 31ec 223e
00000310: 3f3c 4a3e 0c0a 233f f781 afbd 1658 cc3d
00000320: ec1d 74bd 6937 ac3d 6068 8bbb 9bec fdbc
00000330: 7525 413d 99b6 073e 6617 b43d 5d37 1cbd
00000340: 5b7c bc3d d492 e33c e756 e63d d400 cd3d
00000350: 0f08 babd ac27 a939 262a ebbd 3384 533d
00000360: 6a8d afbb b184 2d3e e188 bcbd 3cce 8cbd
00000370: b5de ad3c a72f 7a3d a1c3 cb3c 5471 99bb
00000380: 5c58 80bd 162e 77bd 5e11 693e d913 a73b
00000390: 2a84 ab3e 392b aebe a748 c5be 042a 13bd
000003a0: 0a21 d4bd 72db 923d 9e8e f53d 8f34 3bbc
000003b0: da8a 35bd 5523 0ebd 9993 603e 8747 0abe
000003c0: aa10 b4bf 5ba3 91bf 5ead 5ebf 057c 7dbf
000003d0: 9b85 2bbf 9fb9 0abf 0bf1 84bf a35c 95be
000003e0: 3d70 2fbf 14b9 99bf 6067 823e 7c27 a0bf
000003f0: d3af 24bf d176 92bf 1cd1 2bbf 36ab 94bf

lstm.bias_hh_l1 f4 [320]
-1.5834761 -0.9353564 -0.6921173 -1.1093677 -0.7631782 -0.5777044 -1.2045919 -0.25063765
-0.6644296 -1.1011448 -0.2664686 -1.1792159 -0.75702447 -0.31955618 -0.7507309 -1.1156348
-0.086047836 -0.84070927 -0.7463262 -0.90615404 -1.1091691 -0.5083999 -1.5667696 -0.5378098
-0.49549764 -0.8885516 -0.7202982 -0.96295613 -0.8370231 -1.1130955 -0.15302292 -0.24646872
-1.3202116 -1.6878077 -0.8140064 -0.6118908 -0.7246397 -0.9094843 -1.0024997 -0.9427689
-1.0965075 -0.35594642 -0.43771517 -0.40201876 -1.1144224 -0.6268012 -0.949566 -1.3126599
-1.4639832 -1.0072346 -1.3956051 -0.8409987 -1.1312087 -1.2711704 -0.691237 -1.0694978
-1.464091 -0.8069677 -1.0861444 -0.9779548 -0.7771029 -1.1218421 -1.0120765 -1.0870785
-0.8147414 -0.9746393 -1.3586642 -0.9263883 -0.36304367 -0.8682557 -0.95144063 -1.4286517
-1.4759008 -1.4631774 -0.6636743 -1.1868927 -1.3380524 -1.1729575 -0.29545096 -0.60513216
-1.0991565 -0.6643864 -0.5122892 -0.9974169 -0.33951858 -0.32512316 -0.48578358 -0.46832097
-0.87061405 -0.6439444 0.21731536 -1.1922613 -1.375609 0.8133889 -0.44737867 -0.72230417
-0.3261902 0.029767936 -0.59951144 -0.59478444 -0.5194905 -0.4265938 -0.80023754 -0.40707898
-0.3054412 -0.30052665 -0.49287608 -0.8605938 -1.3742937 -1.3053533 -0.53956205 -0.8529791
-0.96919817 -1.1545875 -0.34824306 -0.25518045 -1.100636 -0.53006124 -0.2194802 -0.44884515
-0.425403 -1.0722218 -1.0962509 -0.34893262 -0.7028182 -0.3279372 -0.20428027 -0.96336585
-0.72681624 -0.33155298 -0.87595135 -0.45565808 -0.55786675 -0.44650733 -0.7438042 -0.8650453
-1.032576 -0.5639492 -1.1889465 -0.24630865 -0.49767205 -0.20245932 -0.63855696 -0.6325336
-1.3289423 -1.0149686 0.22808255 -0.7569199 -0.14952801 -1.7533646 -0.9944281 -0.98703665
-0.88535565 -0.75270975 -0.4847192 -0.6510239 -1.3377669 -0.9906295 -0.5163329 -0.5910134
0.05588938 0.048708916 0.20300025 0.108560145 -0.1679617 -0.118805714 -0.12062621 -0.1905993
-0.1726049 0.02766167 0.19396847 0.019630928 0.15881796 0.53157896 -0.15458064 0.089117624
0.15456608 -0.1324593 -0.13810673 0.0035277705 -0.104806334 0.048047878 -0.040259056 0.10157836
0.07721642 0.0031238294 -0.04003112 0.16381282 0.2711343 -0.21413581 -0.026663804 0.1700346
0.055038765 0.17577873 0.009700333 0.04487421 0.15854473 0.5704738 -0.004312817 -0.048762828
0.009681731 0.12950273 0.20071214 0.012109052 -0.014550414 0.10978261 0.033305638 -0.055666313
-0.0055001127 -0.0805003 0.033671446 0.050873812 -0.14464854 -0.054210845 0.0027599041 -0.024611717
0.04597859 0.17026344 -0.1579218 0.035515126 -0.030136986 -0.02786192 -0.08646467 0.040816564
0.04344359 0.021138432 0.37897915 0.070721604 0.4625906 -0.35158527 -0.3744274 0.007193853
0.016289957 0.11885252 0.12523589 -0.00776295 -0.01250722 -0.016771398 0.20051233 -0.12987219
-1.4565806 -1.2453214 -0.78485966 -1.0767485 -0.69286156 -0.54770136 -0.9319447 -0.3317108
-0.6139713 -1.2511513 0.10446461 -1.0725977 -0.65700996 -1.135852 -0.6033915 -1.0042948
00000000: 58af cabf 8473 6fbf 992e 31bf c3ff 8dbf
00000010: a65f 43bf 70e4 13bf 1130 9abf 9453 80be
00000020: 0f18 2abf 50f2 8cbf 936e 88be 8cf0 96bf
00000030: 5bcc 41bf de9c a3be e62f 40bf 1fcd 8ebf
00000040: d939 b0bd b938 57bf 3c0f 3fbf b6f9 67bf
00000050: 41f9 8dbf 7f26 02bf e88b c8bf e7ad 09bf
00000060: deb1 fdbe 1e78 63bf 7665 38bf 4b84 76bf
00000070: 2547 56bf ea79 8ebf 0ab2 1cbe 4c62 7cbe
00000080: b2fc a8bf 150a d8bf b962 50bf e0a4 1cbf
00000090: fd81 39bf f7d3 68bf e951 80bf 4d59 71bf
000000a0: 5c5a 8cbf 9c3e b6be 341c e0be 67d5 cdbe
000000b0: 65a5 8ebf 0b76 20bf c216 73bf 3d05 a8bf
000000c0: cd63 bbbf 10ed 80bf 30a3 b2bf b14b 57bf
000000d0: 72cb 90bf b6b5 a2bf e8f4 30bf 4ee5 88bf
000000e0: 5567 bbbf 6f95 4ebf c806 8bbf 3f5b 7abf
000000f0: 37f0 46bf 8698 8fbf b98b 81bf 6325 8bbf
00000100: e492 50bf f681 79bf b5e8 adbf c927 6dbf
00000110: dce0 b9be 0146 5ebf 9d91 73bf 0fde b6bf
00000120: 51ea bcbf 6649 bbbf 8fe6 29bf 1aec 97bf
00000130: 4d45 abbf 7923 96bf 5945 97be f1e9 1abf
00000140: 29b1 8cbf 3a15 2abf 6325 03bf b756 7fbf
00000150: 61d5 adbe 8b76 a6be a0b8 f8be c4c7 efbe
00000160: 90e0 5ebf 8ad9 24bf eb87 5e3e 059c 98bf
00000170: f513 b0bf 413a 503f d10e e5be ede8 38bf
00000180: 6702 a7be e3db f33c 9579 19bf cb43 18bf
00000190: 54fd 04bf 816a dabe 5edc 4cbf a86c d0be
000001a0: ca62 9cbe a1de 99be 415a fcbe e04f 5cbf
000001b0: dbe8 afbf d115 a7bf bd20 0abf d75c 5abf
000001c0: 5f1d 78bf 86c9 93bf ea4c b2be 03a7 82be
000001d0: a4e1 8cbf 18b2 07bf 6bbf 60be 08cf e5be
000001e0: 6cce d9be 903e 89bf f351 8cbf 4ca7 b2be
000001f0: e5eb 33bf 62e7 a7be d92e 51be 259f 76bf
00000200: a110 3abf 50c1 a9be 593e 60bf 044c e9be
00000210: 5bd0 0ebf 9c9c e4be f469 3ebf 9c73 5dbf
00000220: 732b 84bf fa5e 10bf 662f 98bf 5638 7cbe
00000230: dfce febe 7f51 4fbe 7878 23bf b9ed 21bf
00000240: c81a aabf 7eea 81bf 798e 693e 81c5 41bf
00000250: df1d 19be 406e e0bf d792 7ebf 6fae 7cbf
00000260: aba6 62bf 96b1 40bf 1d2d f8be 81a9 26bf
00000270: f23b abbf e599 7dbf 652e 04bf a74c 17bf
00000280: 43ec 643d 0083 473d 4cdf 4f3e c854 de3d
00000290: 27fe 2bbe 6950 f3bd e00a f7bd 772c 43be
000002a0: 57bf 30be ba9a e23c ac9f 463e 0ad1 a03c
000002b0: 2da1 223e 8f15 083f 634a 1ebe 4d83 b63d
000002c0: 9246 1e3e 69a3 07be da6b 0dbe 2b32 673b
000002d0: b4a4 d6bd dacd 443d aee6 24bd 5108 d03d
000002e0: a423 9e3d 29b9 4c3b acf7 23bd 8cbe 273e
000002f0: 1dd2 8a3e 6b46 5bbe 0d6e dabc 8d1d 2e3e
00000300: 5470 613d 57ff 333e 25ee 1e3c 05ce 373d
00000310: 8d59 223e 920a 123f 8852 8dbb 88bb 47bd
00000320: 20a0 1e3c 5d9c 043e 7c87 4d3e 0c65 463c
00000330: dc64 6ebc b4d5 e03d 7e6b 083d 5c02 64bd
00000340: 4a3a b4bb 57dd a4bd 12eb 093d 0f61 503d
00000350: bf1e 14be 310c 5ebd 82df 343b 839e c9bc
00000360: 0c54 3c3d 8a59 2e3e 41b6 21be 4f78 113d
00000370: d7e1 f6bc ae3e e4bc 6414 b1bd 452f 273d
00000380: e8f1 313d 812a ad3c 8e09 c23e 7dd6 903d
00000390: add8 ec3e fc02 b4be f3b4 bfbe 6aba eb3b
000003a0: 8472 853c f368 f33d d63d 003e 5860 febb
000003b0: 15eb 4cbc 2c64 89bc 1b53 4d3e 37fd 04be
000003c0: 3c71 babf b166 9fbf 90ec 48bf e5d2 89bf
000003d0: 605f 31bf 2836 0cbf ee93 6ebf ffd5 a9be
000003e0: 392d 1dbf ba25 a0bf 8bf1 d53d e24a 89bf
000003f0: ce31 28bf 9963 91bf de77 1abf bb8c 80bf
