models/best_model_02.pt (torch, 317644 bytes, 9 tensors)

lstm.weight_ih_l0 f4 [320, 1]
0	0x3e75dbdb	0.2400965
1	0xbed15689	-0.40886334
2	0xbe3ecb7e	-0.18632314
3	0xbeb225e2	-0.34794527
4	0x3dbe9583	0.09305861
5	0xbed92e04	-0.4241792
6	0xbe930f95	-0.28722826
7	0x3ef7ca39	0.4839647
8	0xbedf6a9e	-0.4363603
9	0x3ee7b9ce	0.45258945
10	0xbf0f61c6	-0.56008565
11	0x3e215208	0.15753949
12	0xbd84d455	-0.064858116
13	0xbec53202	-0.38514715
14	0xbeada20e	-0.339127
15	0xbf09ea72	-0.5387336
16	0xbe3912af	-0.18073533
17	0x3d9f65ac	0.07783064
18	0xbdbccee6	-0.0921915
19	0xbe9ef759	-0.31048086
20	0xbf246b46	-0.64226186
21	0xbe9edc77	-0.31027576
22	0xbce0b2b6	-0.027428966
23	0x3ef7e7a1	0.48418906
24	0xbe3677ff	-0.17819212
25	0xbd99c7da	-0.07508822
26	0x3efea41e	0.49734586
27	0xbd44116e	-0.047868185
28	0xbeb1bcfa	-0.3471449
29	0x3e93bb3a	0.2885378
30	0x3ec44103	0.3833085
31	0xbf04ebfb	-0.5192258
32	0xbe478bd1	-0.1948693
33	0xbec29ac2	-0.38008696
34	0xbee03cd7	-0.43796417
35	0xbe852791	-0.2600675
36	0x3d96c4fc	0.073617905
37	0xbea0c58f	-0.31400725
38	0xbdf2fc63	-0.11864545
39	0x3ec3c0e2	0.38233095
40	0x3f19f548	0.60139894
41	0xbe8333a9	-0.2562535
42	0xbe832f70	-0.2562213
43	0xbea7f3c7	-0.32803175
44	0xbe18672d	-0.14883108
45	0xbde6bf97	-0.112670116
46	0xbe4f527e	-0.20246312
47	0xbc01ec6b	-0.007929902
48	0xbdfc04e9	-0.12305624
49	0xbee743da	-0.45168954
50	0xbe607d49	-0.21922792
51	0xbe30ae3f	-0.1725397
52	0x3e9567ac	0.29180658
53	0x3dc50143	0.09619381
54	0x3e11500b	0.1419069
55	0xbcca06e8	-0.024661496
56	0x3e3c7d4c	0.18407172
57	0x3ea4cfca	0.3218978
58	0x3d97b8b7	0.074082784
59	0xbe40b2aa	-0.18818155
60	0x3d40a6b6	0.047033988
61	0x3f153fe3	0.5830061
62	0x3e5c933e	0.21540543
63	0xbe86fc98	-0.2636459
64	0xbd8e1bef	-0.06938922
65	0x3ee3b068	0.44470525
66	0x3e1b379b	0.1515793
67	0xbe0fb5fa	-0.14034262
68	0x3e9c3994	0.3051268
69	0x3e8a2527	0.2698147
70	0x3e863b39	0.26217058
71	0xbee99fed	-0.45629826
72	0xbe9b6e0f	-0.30357406
73	0x3e6016af	0.21883653
74	0xbcafd972	-0.02146599
75	0xbe2dc103	-0.1696816
76	0xbe4a046b	-0.19728248
77	0xbef00783	-0.4688073
78	0xbea1e8d6	-0.31622952
79	0xbd733b85	-0.059382934
80	0x3f7404be	0.95319736
81	0xbe162ce6	-0.14665565
82	0x3e97f596	0.29679555
83	0xbe86bda4	-0.2631656
84	0xbe8dea03	-0.277176
85	0xbe3ea04c	-0.18615836
86	0x3e8baecb	0.27281794
87	0xbe885940	-0.26630592
88	0xbe9b9b66	-0.30391997
89	0x3e308bad	0.17240782
90	0xbeeee50c	-0.46659124
91	0x3e521976	0.20517525
92	0xbd0c3ccf	-0.03423768
93	0xbefe4417	-0.49661323
94	0xbd268bd4	-0.040660694
95	0xbee6cb4a	-0.45076972
96	0x3e248971	0.16068055
97	0x3e2b003d	0.1669931
98	0xbed7f403	-0.42178354
99	0x3efffe45	0.4999868
100	0xbeb80f50	-0.35949183
101	0xbeac1b9a	-0.33614808
102	0x3f2a7982	0.66591656
103	0x3e864bcd	0.26229706
104	0xbdab7bfd	-0.08373258
105	0xbeac3a61	-0.3363829
106	0xbf0aa20a	-0.541535
107	0xbcb97a91	-0.022641452
108	0xbe031d78	-0.1280421
109	0xbe7e8b92	-0.2485793
110	0xbeb6da01	-0.357132
111	0xbf1f287c	-0.6217115
112	0xbdb4a888	-0.08821207
113	0xbef532c5	-0.47890297
114	0xbda08929	-0.07838661
115	0xbd80e9a9	-0.06294567
116	0x3e07b265	0.13251646
117	0x3effdf85	0.4997522
118	0xbeb81723	-0.35955152
119	0x3e7aee32	0.24504927
120	0xbd2a3821	-0.041557435
121	0x3df09613	0.117473744
122	0x3b1e8ac9	0.002419161
123	0xbd348506	-0.044072174
124	0x3e9b4a67	0.30330202
125	0x3d4bc2b9	0.04974625
126	0x3e45d507	0.19319545
127	0xbdadab91	-0.08479989
128	0x3e83417f	0.25635907
129	0xbed11a17	-0.40840217
130	0xbe1d7704	-0.15377432
131	0xbf37b911	-0.71766764
132	0x3ebb5221	0.36586097
133	0x3dfe5689	0.12418849
134	0x3d4c7ea2	0.049925454
135	0xbf50b3d2	-0.81524384
136	0xbf87085f	-1.054943
137	0x3e0a45af	0.13503145
138	0xbf1cc93c	-0.6124456
139	0xbd3a3920	-0.045464635
140	0xbe9d1fe2	-0.30688387
141	0x3ee0069e	0.4375505
142	0x3db40405	0.08789829
143	0xbced8651	-0.028994711
144	0x3c88c162	0.016693775
145	0xba991792	-0.0011679998
146	0x3e1215a5	0.14266069
147	0x3e607c21	0.21922351
148	0xbd531cc3	-0.0515411
149	0x3c72a77a	0.014810437
150	0xbcde7d5e	-0.02715939
151	0xbdd13e2b	-0.10216936
152	0x3f1c4bef	0.61053365
153	0xbe89505c	-0.26819122
154	0xbe2ec557	-0.17067467
155	0x3e36b954	0.17844135
156	0x3e06d78a	0.13168159
157	0xbef171d4	-0.47157156
158	0xbf1b842a	-0.6074854
159	0x3ccd917d	0.025093788
160	0xbf95a832	-1.1691954
161	0x3f704ba8	0.9386544
162	0x3f92a0b7	1.1455296
163	0xbf819e80	-1.0126495
164	0xbe58c2b2	-0.2116802
165	0xbf81c2ce	-1.0137575
166	0x3f4b097e	0.7931136
167	0xbf0ee00f	-0.55810636
168	0x3f90f079	1.1323386
169	0x3ef3e90b	0.47638735
170	0x3f8ae3e6	1.0850799
171	0xbe2a0fac	-0.16607541
172	0x3e6f513b	0.2337083
173	0x3e83950a	0.25699645
174	0xbf8ecccf	-1.1156253
175	0xbf9deac3	-1.2337269
176	0xbf3fc218	-0.7490554
177	0xbf8f6d12	-1.1205161
178	0xbf2979c1	-0.66201407
179	0x3f916a3e	1.1360548
180	0x3fb1e318	1.3897429
181	0x3eec969b	0.46208653
182	0x3fa18170	1.2617626
183	0xbe6b7f27	-0.22997724
184	0xbf1ff8f1	-0.6248923
185	0xbef8b1b6	-0.48573083
186	0x3f0a67e6	0.54064786
187	0xbf1ad715	-0.6048444
188	0x3f90cbd0	1.1312199
189	0x3ecc64e4	0.39920723
190	0x3edda948	0.43293214
191	0x3fa09efc	1.2548518
192	0xbf3cf7fa	-0.7381588
193	0x3f6e7fc4	0.93163705
194	0xbf344a89	-0.7042623
195	0x3df40243	0.11914494
196	0xbeb48224	-0.3525554
197	0x3f634f89	0.88793236
198	0x3ea87038	0.32898116
199	0xbe9c0903	-0.30475625
200	0xbe8b2e29	-0.27183655
201	0x3d8a8f6f	0.06765639
202	0xbf58094e	-0.843892
203	0xbf697fe1	-0.9121075
204	0x3f8ea6cc	1.1144652
205	0x3f893d2e	1.0721796
206	0xbf1f16ae	-0.6214398
207	0xbeb9eb11	-0.36312154
208	0xbf885375	-1.0650469
209	0xbf86195a	-1.0476487
210	0x3f6ff1ab	0.9372813
211	0xbf8c6616	-1.0968654
212	0x3eb390bb	0.35071358
213	0xbf51b890	-0.81922245
214	0x3ef4b92d	0.47797528
215	0x3e606242	0.21912482
216	0x3e9070b6	0.28210992
217	0x3edec49d	0.4350938
218	0x3e06fb71	0.13181855
219	0xbe4312fd	-0.19050212
220	0xbe7e5255	-0.24836095
221	0xbe95fb80	-0.29293442
222	0x3f0d8d45	0.55293685
223	0xbe825c3d	-0.25460997
224	0x3f4d9580	0.80306244
225	0x3ec71615	0.38884035
226	0x3e0b4374	0.1359995
227	0xbedbbce1	-0.4291754
228	0x3ec927dd	0.39288226
229	0xbec6cc25	-0.38827625
230	0xbef0d5c3	-0.47038087
231	0xbf0db018	-0.5534682
232	0xbfab8251	-1.3399144
233	0x3f0baf53	0.545644
234	0x3da26443	0.0792928
235	0x3ea1d925	0.3161098
236	0xbf3cc790	-0.7374201
237	0xbf97270f	-1.1808795
238	0xbf97e722	-1.1867411
239	0xbf727e5b	-0.94724053
240	0xbeec35ab	-0.46134695
241	0xbe5f2f41	-0.2179537
242	0xbea5304e	-0.32263416
243	0xbe6973e3	-0.22798114
244	0x3d100d21	0.03516877
245	0xbe6cd8e6	-0.23129615
246	0xbe64480c	-0.22293109
247	0x3ec9cfe2	0.39416414
248	0xbd62befc	-0.05535792
249	0x3ebbff35	0.36718145
250	0xbe96d869	-0.29461983
251	0xbeb57fbc	-0.35449016
252	0xbe38870f	-0.18020271
253	0xbf0f4c53	-0.55975837
254	0xbed17490	-0.40909243
255	0xbeaddc96	-0.33957356

lstm.weight_hh_l0 f4 [320, 80]
0	0x3e188a49	0.14896502
1	0x3ea0653b	0.31327233
2	0x3e8eb25a	0.27870446
3	0xbe9b5f1d	-0.30346003
4	0x3eb349ff	0.35017392
5	0xbe786567	-0.24257432
6	0xbba66314	-0.005077729
7	0xbe9d304e	-0.30700916
8	0x3e9e09fd	0.30866995
9	0xbd550468	-0.052006155
10	0x3ec22f87	0.37926885
11	0x3e8ad18d	0.27113
12	0xbcb5a5b2	-0.022173736
13	0xbde48945	-0.111589946
14	0xbc9f9a1c	-0.019482665
15	0xbe96124a	-0.29310828
16	0xbd3b6e9b	-0.04575978
17	0xbedd279e	-0.43194288
18	0x3dbada33	0.091236494
19	0xbd512e3c	-0.051069483
20	0x3f01de88	0.5073018
21	0xbd638933	-0.055550765
22	0x3e11959e	0.1421723
23	0xbde4e856	-0.11177127
24	0xbdd2f04c	-0.10299739
25	0xbe6d0a9a	-0.23148575
26	0x3e38e5bf	0.18056391
27	0x3e1a4113	0.15063886
28	0x3ee0a5c0	0.43876457
29	0xbc92d273	-0.017922616
30	0x3cb8abde	0.02254289
31	0x3ee6b115	0.45056978
32	0xbc24c58f	-0.010056867
33	0x3db99f69	0.09063608
34	0xbe839ab1	-0.25703958
35	0x3dcc6a20	0.09981179
36	0xbd7df6c4	-0.062002912
37	0xbccaaa0c	-0.024739288
38	0xbe6bc4d0	-0.23024297
39	0x3e735d15	0.23765977
40	0xbcae6d34	-0.021292306
41	0xbd5727f5	-0.05252834
42	0xbceda518	-0.029009387
43	0xbc43b334	-0.011944581
44	0x3d71eeca	0.059065618
45	0x3e812fdf	0.25231835
46	0xbe118b03	-0.14213185
47	0xbd88eb5a	-0.06685515
48	0xbdac1e0d	-0.08404169
49	0xbdaa55f1	-0.08317173
50	0x3e56d44e	0.20979425
51	0xbed65eb6	-0.41869134
52	0xbe286d22	-0.16447881
53	0xbde3dfb5	-0.11126653
54	0x3e0f3761	0.13985969
55	0xbc18201c	-0.009284999
56	0xbe805f17	-0.25072548
57	0x3e26e760	0.162992
58	0xbe5e168a	-0.21688285
59	0xbd8eae93	-0.06966891
60	0xbdafbce0	-0.08580947
61	0x3e7b6085	0.24548538
62	0xbd3587e1	-0.044319037
63	0x3d943725	0.072370805
64	0xbdae309c	-0.08505365
65	0xbd46d4b2	-0.048542686
66	0xbe6f9c15	-0.23399384
67	0x3e6efc38	0.23338401
68	0xbde2bb37	-0.11070865
69	0x3df64955	0.12025706
70	0xbdf09f9d	-0.11749194
71	0xbc710166	-0.014709806
72	0xbe9d11c3	-0.30677614
73	0x3de2dc1a	0.11077137
74	0x3e18aa9d	0.14908834
75	0x3e0861f7	0.1331862
76	0x3e02ca8e	0.12772581
77	0xbe6024f7	-0.21889101
78	0xbf1920b7	-0.59815544
79	0xbe39fcee	-0.18162891
80	0xbdf9b5cd	-0.12192879
81	0x3ed1fc82	0.4101296
82	0x3e0e5ecc	0.1390335
83	0xbe7cc82f	-0.24685739
84	0x3e91ec96	0.28500813
85	0x3dae1d7b	0.08501717
86	0x3dc8b13c	0.0979943
87	0x3e29a375	0.1656626
88	0x3f0e628b	0.55619115
89	0x3d458bd2	0.048229046
90	0x3efd2a96	0.49446553
91	0x3d17d43d	0.03706764
92	0xbe569ff6	-0.20959458
93	0x3e4c285d	0.19937272
94	0x3ec7fec3	0.39061555
95	0xbde80f07	-0.11330991
96	0xbde337cc	-0.11094627
97	0xbe443583	-0.19161038
98	0x3f004a98	0.5011382
99	0xbe0e5f0c	-0.13903445
100	0x3efdbef5	0.4955975
101	0x3e2b76b8	0.16744506
102	0xbb0ccda6	-0.002148488
103	0xbd796059	-0.0608829
104	0x3e28255c	0.16420501
105	0xbefa053c	-0.4883212
106	0xbe8dfcc8	-0.2773192
107	0xbe481e14	-0.19542724
108	0x3ecac98a	0.39606887
109	0x3d30422b	0.043031853
110	0x3d9f260a	0.07770927
111	0x3ed70e94	0.4200331
112	0x3e56bae2	0.20969728
113	0xbd133045	-0.035934705
114	0xbeb229f5	-0.34797636
115	0xbda4fde6	-0.0805624
116	0xbdaac668	-0.08338624
117	0xbec4798d	-0.38373986
118	0xbd8d520a	-0.06900413
119	0xbe5c4453	-0.21510439
120	0xbec58323	-0.38576612
121	0x3eb5b4a6	0.35489386
122	0xbd177f8f	-0.036986884
123	0xbe937238	-0.2879808
124	0x3e00c80c	0.12576312
125	0x3df5ecd2	0.120080605
126	0xbd66aa87	-0.05631497
127	0xbd8f77da	-0.07005282
128	0xbc445cf5	-0.011985053
129	0xbe8a7b7d	-0.2704734
130	0x3ec3bccd	0.3822998
131	0xbf88f0f2	-1.0698531
132	0x3e9ece29	0.31016663
133	0xbdf326df	-0.118726484
134	0x3eba728f	0.36415526
135	0xbe0069bd	-0.12540336
136	0xbe3596f2	-0.17733362
137	0x3dabc036	0.08386271
138	0xbe68aadf	-0.22721432
139	0x3d9b657a	0.075877145
140	0xbe39a09f	-0.18127678
141	0xbf116f6e	-0.56810653
142	0x3dd3464d	0.10316143
143	0xbd77c15c	-0.060487136
144	0xbe3de089	-0.18542685
145	0x3e5b4b1e	0.21415374
146	0x3d83f6a4	0.06443527
147	0x3c86c1f2	0.016449902
148	0xbd21f67c	-0.039541706
149	0xbd0ff6f2	-0.035147615
150	0xbd6b4da6	-0.0574471
151	0xbe17dcf9	-0.14830388
152	0xbeb28f91	-0.34875157
153	0x3f31dcff	0.6947784
154	0xbe6220f0	-0.22082877
155	0x3e9f1af4	0.3107525
156	0x3e253203	0.16132359
157	0xbe3863c2	-0.18006805
158	0xbe545b05	-0.20737846
159	0xbe8195c9	-0.2530959
160	0x3dfd3fb0	0.12365663
161	0x3e88e1cd	0.26734772
162	0x3e7bdb93	0.2459548
163	0xbdf4ee16	-0.11959474
164	0x3e8402bb	0.25783333
165	0x3cca9416	0.024728816
166	0xbe117e9a	-0.14208451
167	0x3dbad5db	0.09122821
168	0x3e347080	0.1762104
169	0xbdd809a1	-0.105487116
170	0x3e44f3e4	0.19233662
171	0x3ecc35c7	0.3988478
172	0xbe470e06	-0.19438943
173	0x3e10a3ee	0.14125034
174	0xbde47a45	-0.111561336
175	0xbe2b346a	-0.16719213
176	0xbe2f3499	-0.17109908
177	0xbef1c1b9	-0.4721811
178	0x3e3fbe50	0.18724942
179	0xbcad41a3	-0.021149462
180	0x3eddeac5	0.43343177
181	0x3e8c1ca8	0.27365613
182	0x3e89c067	0.26904604
183	0x3d622af6	0.055216752
184	0x3da940ec	0.08264336
185	0xbe4cb5b9	-0.19991197
186	0xbe2dd6c8	-0.16976464
187	0xbd632fa0	-0.05546534
188	0x3ec4ede7	0.38462755
189	0xbecb375b	-0.3969067
190	0xbe83aefb	-0.25719437
191	0x3e989080	0.29797745
192	0xbc136216	-0.0089955535
193	0xbe005c00	-0.12535095
194	0xbeae3d84	-0.34031308
195	0xbc7c0df6	-0.015384188
196	0xbd16fa4f	-0.036859807
197	0xbe018ce9	-0.12651409
198	0xbea07fb4	-0.3134743
199	0x3ed24f13	0.41075954
200	0x3e91d865	0.28485408
201	0xbe96d6c2	-0.29460722
202	0x3c852be1	0.016256275
203	0x3ca9b985	0.020718345
204	0x3d861682	0.06547262
205	0x3e9cff78	0.30663657
206	0xbc7625be	-0.015023647
207	0xbda51a5e	-0.0806167
208	0xbe18adb0	-0.14910007
209	0xbe495ec1	-0.19665052
210	0x3eeaa82a	0.45831424
211	0xbf3d651c	-0.73982406
212	0xbe8477f7	-0.25872776
213	0x3daca313	0.084295414
214	0x3d9757a0	0.0738976
215	0xbe49a186	-0.19690523
216	0xbec6abe4	-0.38803017
217	0xbcbec98c	-0.023289464
218	0xbe514ba1	-0.20439006
219	0x3d701ee4	0.05862321
220	0xbe0b5665	-0.13607176
221	0x3f0b2428	0.54352045
222	0x3d4d5092	0.050125666
223	0x3de9f2fc	0.11423299
224	0x3e284ba9	0.16435112
225	0xbeb2e060	-0.3493681
226	0xbec014b2	-0.3751579
227	0x3c286204	0.010277275
228	0xbe8703ef	-0.2637019
229	0x3e237543	0.159627
230	0xbc9f31b8	-0.019432887
231	0xbd2f8bb6	-0.042857848
232	0xbe3270c8	-0.17425835
233	0xbc9a4b39	-0.018834697
234	0x3dd93f40	0.10607767
235	0x3dd03a9b	0.10167428
236	0x3d81f58b	0.06345662
237	0xbd4b7299	-0.049669836
238	0xbef24845	-0.47320762
239	0xbd8a568a	-0.06754787
240	0xbe943796	-0.2894866
241	0x3e734352	0.2375615
242	0x3e3a3999	0.18186034
243	0xbf0a1ae1	-0.53947264
244	0x3ebd4851	0.36969236
245	0xbe9d6066	-0.3073761
246	0x3e83010d	0.2558674
247	0x3cf385bc	0.029726855
248	0x3ee78d8b	0.45225176
249	0xbf01f016	-0.5075697
250	0x3ecf080c	0.40435827
251	0x3e57f8bc	0.21090978
252	0xbe5b5e3a	-0.21422663
253	0xbe13f183	-0.14447598
254	0xbb265472	-0.0025379923
255	0xbeb27f67	-0.34862825

lstm.bias_ih_l0 f4 [320]
0	0x3c9eaf2a	0.019370634
1	0xbe37c7e1	-0.17947342
2	0x3e21a43b	0.15785305
3	0xbd2933cd	-0.041309167
4	0xbf56c2ad	-0.838908
5	0xbe888f18	-0.26671672
6	0xbece322b	-0.4027265
7	0xbf6de989	-0.9293447
8	0x3dbf5708	0.09342772
9	0xbeec6d6f	-0.4617724
10	0xbdf7d536	-0.12101214
11	0xbf30dab9	-0.69083744
12	0xbf3ff736	-0.7498659
13	0xbf404892	-0.75110734
14	0x3e1dee70	0.15422988
15	0x3d41f5c5	0.047353525
16	0xbec40881	-0.38287738
17	0x3dff691b	0.12471219
18	0x3ccec3dd	0.02523988
19	0xbe376e6d	-0.17913218
20	0x3cce72c2	0.025201205
21	0xbe4308ed	-0.19046374
22	0x3e77bb1f	0.24192475
23	0xbf5c6c55	-0.861028
24	0xbea1c226	-0.31593436
25	0xbed919b7	-0.4240243
26	0xbf0f8ce8	-0.5607438
27	0xbe0d2118	-0.13782156
28	0x3d366a98	0.04453525
29	0xbf79770f	-0.97447294
30	0xbf088765	-0.53331596
31	0xbe327a55	-0.17429478
32	0xbeae3af2	-0.34029347
33	0xbe9f785c	-0.31146514
34	0xbe967b38	-0.29390883
35	0xbf31483f	-0.69250864
36	0xbec71504	-0.3888322
37	0xbda5d293	-0.080968045
38	0xbf3094c6	-0.6897701
39	0xbef42eb8	-0.47691894
40	0xbf932219	-1.1494781
41	0xbf77cef6	-0.9680017
42	0xbe0de9db	-0.1385874
43	0xbcacc971	-0.021092148
44	0x3d4e9d49	0.050442968
45	0x3d6c07cf	0.057624634
46	0xbeb5481c	-0.35406578
47	0xbf010f48	-0.5041394
48	0x3ddf475b	0.10902282
49	0x3b3483f6	0.0027544475
50	0x3c848d1d	0.01618057
51	0x3d391c46	0.04519298
52	0xbee2d080	-0.44299698
53	0xbe688cde	-0.22709987
54	0xbeb92af8	-0.36165595
55	0xbf305bae	-0.6888989
56	0xbf2b3bd2	-0.66888154
57	0xbecec0a7	-0.40381357
58	0xbf0b7524	-0.5447562
59	0xbf15c8be	-0.58509433
60	0xbf38631d	-0.72026235
61	0xbf5af05a	-0.85523
62	0xbe4aa810	-0.19790673
63	0xbf0f07e1	-0.558714
64	0xbcfe7910	-0.031063586
65	0xbf2dc34c	-0.67876124
66	0xbf34e431	-0.7066069
67	0xbef6c021	-0.48193458
68	0xbf5bea55	-0.8590444
69	0xbf110402	-0.5664674
70	0xbf0eadbf	-0.55733865
71	0xbf21983c	-0.63122916
72	0x3e659cc5	0.22423084
73	0xbef23514	-0.4730612
74	0xbf690b52	-0.910329
75	0xbeae9efc	-0.3410567
76	0xbe0b1ec9	-0.13585962
77	0xbe24db2c	-0.16099232
78	0x3e53b2af	0.20673631
79	0xbe6e7629	-0.23287262
80	0x3e59ab9f	0.21256875
81	0xbe9e3445	-0.30899253
82	0x3e61e781	0.22060968
83	0xbe026f2c	-0.12737721
84	0xbf0baab4	-0.5455735
85	0xbec5ec62	-0.38656908
86	0xbf01df61	-0.50731474
87	0xbf89db24	-1.0770001
88	0x3e599dc7	0.21251594
89	0xbe8dceff	-0.27696988
90	0xbdbd060a	-0.092296675
91	0xbf0c2f58	-0.5475974
92	0xbf35870b	-0.70909184
93	0xbf030493	-0.51178855
94	0xbe5b9ce8	-0.21446574
95	0xbd52596f	-0.05135482
96	0xbe87fba0	-0.26559162
97	0x3e6b8f33	0.23003845
98	0xbf606dd4	-0.87667584
99	0xbe93b06b	-0.28845534
100	0xbe59a2c8	-0.21253502
101	0xbed3ae43	-0.4134389
102	0x3e4bc6b2	0.19900015
103	0xbeda4d2f	-0.4263701
104	0xbf1912ed	-0.59794503
105	0xbe61ea3e	-0.22062013
106	0xbf10b0f0	-0.56519985
107	0x3e3703c7	0.17872535
108	0xbd89860e	-0.06715022
109	0xbf11f685	-0.57016784
110	0xbf3f4ecb	-0.74729604
111	0xbe45e244	-0.19324595
112	0xbf34f709	-0.70689446
113	0xbecd0b04	-0.40047467
114	0xbe685ba5	-0.2269121
115	0xbeb868c3	-0.36017427
116	0xbeffd325	-0.49965778
117	0x3f0e873a	0.5567509
118	0xbe8a59db	-0.2702168
119	0xbe70ff62	-0.23534921
120	0xbeed94c1	-0.46402553
121	0xbedfc4ac	-0.43704736
122	0xbdbf1c55	-0.09331576
123	0xbe1fa61f	-0.15590714
124	0x3ea855d3	0.3287798
125	0x3e36b798	0.17843473
126	0xbebade41	-0.3649769
127	0xbf002d50	-0.5006914
128	0x3dc03096	0.09384267
129	0xbeb8cd91	-0.36094335
130	0xbe30d95d	-0.17270418
131	0x3abcd79c	0.0014407518
132	0xbeb58346	-0.35451716
133	0xbe6a7699	-0.22896804
134	0xbe9c5451	-0.30533078
135	0xbf196b80	-0.59929657
136	0xbec80ff1	-0.39074662
137	0xbdd8fc1c	-0.10594961
138	0xbe8eab08	-0.2786486
139	0xbec895e1	-0.3917685
140	0xbee035b4	-0.43790972
141	0xbf0cb16f	-0.5495824
142	0xbe9dc2af	-0.30812594
143	0xbe54829a	-0.20752946
144	0x3d814707	0.063123755
145	0xbee28f84	-0.4425012
146	0xbf0fc2bb	-0.5615651
147	0xbe9aa21d	-0.30201808
148	0xbec1e92e	-0.37873214
149	0xbe69f113	-0.22845869
150	0xbea2d6e1	-0.31804565
151	0xbf15ca45	-0.58511764
152	0x3e0a3cdb	0.13499777
153	0xbedb7b4e	-0.42867512
154	0xbea872da	-0.32900125
155	0xbec09c81	-0.37619403
156	0xbed21623	-0.41032514
157	0xbe79a1f5	-0.24378188
158	0x3e6030e7	0.21893655
159	0xbe0c5312	-0.13703564
160	0xbdc24fd8	-0.09487885
161	0x3cdc9c71	0.026930066
162	0x3e583aa4	0.2111612
163	0x3aa72f1b	0.0012755127
164	0xbe2ba307	-0.16761409
165	0x3dcd9708	0.100385725
166	0xbc6991f3	-0.014255988
167	0x3d33a0cd	0.043854523
168	0x3d15dfe6	0.03659048
169	0x3dde619b	0.108584605
170	0x3cadfc02	0.02123833
171	0xbe2581be	-0.16162774
172	0x3dc33908	0.09532362
173	0x3e1ba06d	0.15197916
174	0xbd0e45e8	-0.034734637
175	0xbd0e0b10	-0.03467852
176	0x3dcd7281	0.100316055
177	0xbe7bed09	-0.2460214
178	0xbeb32564	-0.34989464
179	0x3d179c54	0.03701432
180	0x3e04eb12	0.12980297
181	0x3dd0ee58	0.102017105
182	0x3e8cc41a	0.27493364
183	0xbe0d4ced	-0.13798876
184	0xbe32b125	-0.17450388
185	0x3d79181b	0.060814004
186	0xbe453ba6	-0.19261035
187	0xbe20e42e	-0.15712044
188	0x3dbd16ae	0.092328414
189	0xbdaf4cc6	-0.08559565
190	0x3da5feb0	0.081052184
191	0x3d9c8604	0.07642749
192	0xbe4686b0	-0.19387317
193	0xbe001d47	-0.12511168
194	0xbaaeb752	-0.001332978
195	0xbe1e5d68	-0.15465319
196	0xbed228e8	-0.41046834
197	0xbe671583	-0.225668
198	0x3cc9e889	0.024647014
199	0x3dbec18a	0.093142584
200	0x3e0daff7	0.13836657
201	0xbd4fbc7d	-0.050716866
202	0x3a9f0895	0.0012133295
203	0x3da57778	0.080794275
204	0x3dabd2a4	0.08389786
205	0x3dd743ad	0.10510955
206	0x3e30c406	0.17262277
207	0xbea1c034	-0.31591952
208	0xbe1c8ce8	-0.15288126
209	0xbe67d831	-0.22641064
210	0x3e034314	0.12818557
211	0xbe68d556	-0.22737631
212	0xbd650ef4	-0.055922464
213	0xbdcfd0ab	-0.10147222
214	0xbe385684	-0.18001753
215	0xbe7e19dc	-0.24814552
216	0xbea1e217	-0.31617805
217	0x3e19400c	0.14965838
218	0xbe88de75	-0.2673222
219	0x3dcb3a35	0.099232115
220	0x3e3a8ff6	0.18218979
221	0x3e09eeff	0.13470076
222	0x3e915128	0.2838223
223	0x3e2bb698	0.16768873
224	0x3e9decaf	0.30844638
225	0xbddcca36	-0.10780756
226	0x3dd24db9	0.10268731
227	0xbe3079cc	-0.17233962
228	0x3d629ec3	0.05532719
229	0xbd31783b	-0.04332755
230	0x3d015819	0.031578157
231	0xbe077527	-0.13228284
232	0xbdf85cc7	-0.12127071
233	0xbe8dab03	-0.27669534
234	0xbce86ce7	-0.028372241
235	0x3e0f38c5	0.139865
236	0xbe88ceb7	-0.2672021
237	0x3e22591d	0.15854307
238	0xbdbc2a8f	-0.09187805
239	0x3db5e34c	0.08881244
240	0xbe4e88da	-0.20169392
241	0xbe597d2e	-0.21239159
242	0xbd1ff59c	-0.03905259
243	0x3df96d50	0.12179053
244	0xbf47c93b	-0.7804143
245	0xbd3be4b0	-0.04587239
246	0xbed27372	-0.41103703
247	0xbf582f91	-0.8444758
248	0x3dd7d4b4	0.10538617
249	0xbf019c51	-0.50629145
250	0x3da6634d	0.08124409
251	0xbf5d6bdf	-0.86492723
252	0xbf0c5e80	-0.54831696
253	0xbf587cdd	-0.84565526
254	0xbd3370ef	-0.043808874
255	0x3e3cecfd	0.18449779

lstm.bias_hh_l0 f4 [320]
0	0xbd9f6767	-0.07783394
1	0xbda3a06c	-0.079895824
2	0x3d2345fb	0.03986166
3	0xbd327bd6	-0.04357513
4	0xbf3d1cd4	-0.73872113
5	0xbe7d7f05	-0.24755485
6	0xbe968999	-0.29401854
7	0xbf6a2fb6	-0.9147905
8	0xbcb91d65	-0.022597024
9	0xbf079dec	-0.52975345
10	0x3d577103	0.05259801
11	0xbf63baaf	-0.8895673
12	0xbf1d6744	-0.61485696
13	0xbf3b5d06	-0.7318882
14	0x3d6f7dfa	0.05846975
15	0x3ceee0ba	0.029159892
16	0xbe86f742	-0.26360518
17	0x3be4ee7c	0.0069864374
18	0x3dc076d0	0.09397662
19	0xbdf247fe	-0.11830138
20	0x3cd6c123	0.026215142
21	0xbe68e363	-0.22742991
22	0x3eb8aa61	0.3606749
23	0xbf4a1dff	-0.7895202
24	0xbe8f05ec	-0.27934206
25	0xbedb1d7f	-0.4279594
26	0xbf252130	-0.64503765
27	0xbdc49ae5	-0.09599856
28	0xbdccf800	-0.1000824
29	0xbf605fdb	-0.87646264
30	0xbf2334fb	-0.63752717
31	0xbe3622c6	-0.17786703
32	0xbe518ce6	-0.20463905
33	0xbe50b942	-0.2038317
34	0xbe88a1b5	-0.26685873
35	0xbf31aac6	-0.69401205
36	0xbefea6fc	-0.49736774
37	0x3d5ddcb7	0.05416557
38	0xbf307bea	-0.6893908
39	0xbede5ba0	-0.4342928
40	0xbf9468bd	-1.1594464
41	0xbf6cce0c	-0.925019
42	0xbe8fc341	-0.28078654
43	0xbe2ba035	-0.16760333
44	0x3de91398	0.1138069
45	0x3d8698de	0.06572126
46	0xbeacc553	-0.33744296
47	0xbef209df	-0.47273156
48	0x3c54ec34	0.012995768
49	0xbde9eb15	-0.114217915
50	0xbcd2e8be	-0.025745746
51	0xbdda1276	-0.106480524
52	0xbedd52af	-0.43227145
53	0xbe4e6254	-0.20154697
54	0xbeec6458	-0.46170306
55	0xbf38756f	-0.7205419
56	0xbf2f617d	-0.6850813
57	0xbec1af37	-0.3782899
58	0xbec7ae01	-0.38999942
59	0xbf2ce7da	-0.6754128
60	0xbf1f56db	-0.62241906
61	0xbf71c705	-0.94444305
62	0xbeb74676	-0.35795945
63	0xbef3f5db	-0.4764851
64	0xbd5cf581	-0.05394507
65	0xbf190717	-0.59776443
66	0xbf301ed8	-0.68797064
67	0xbebf49cf	-0.37361
68	0xbf36b198	-0.71364737
69	0xbf04a912	-0.5182048
70	0xbee91be3	-0.45529088
71	0xbf2a9eb0	-0.6664839
72	0x3e2c3aa3	0.16819243
73	0xbef77462	-0.4833098
74	0xbf612746	-0.8795055
75	0xbe8d4f54	-0.27599585
76	0xbdf9b1c4	-0.12192109
77	0xbcd78b2f	-0.026311485
78	0x3d438e19	0.047742937
79	0xbe129036	-0.14312825
80	0x3e6fe614	0.23427612
81	0xbe54e41f	-0.20790146
82	0x3d475d61	0.048673037
83	0x3d2a97ed	0.041648794
84	0xbed98d51	-0.42490628
85	0xbedaaf63	-0.42711934
86	0xbf0093b8	-0.502254
87	0xbf82b01b	-1.0209993
88	0x3e66e235	0.22547229
89	0xbea72d34	-0.32651675
90	0xbe2cc3dd	-0.16871591
91	0xbf102fbb	-0.5632283
92	0xbf1e4c25	-0.6183494
93	0xbef4162d	-0.4767317
94	0xbe8ec446	-0.2788412
95	0xbd89b8cf	-0.067247026
96	0xbe22b77b	-0.15890305
97	0x3eb97fe4	0.36230385
98	0xbf50a83b	-0.815067
99	0xbde40ba5	-0.111350335
100	0xbe5f33d6	-0.21797118
101	0xbe92700d	-0.28601113
102	0x3ec83996	0.39106435
103	0xbf1d1e51	-0.61374384
104	0xbf0e1636	-0.5550264
105	0xbea40e45	-0.32042137
106	0xbf0141a5	-0.5049079
107	0x3e28405b	0.164308
108	0xbd151c21	-0.03640378
109	0xbeb7047f	-0.35745618
110	0xbf4316e9	-0.76206833
111	0xbe45e46d	-0.19325419
112	0xbf0f5d95	-0.5600217
113	0xbeeac051	-0.4584985
114	0xbe75b10e	-0.23993322
115	0xbee956a6	-0.4557392
116	0xbf129033	-0.5725128
117	0x3ebfbb69	0.3744767
118	0xbeb5e153	-0.3552347
119	0xbe9a7f5d	-0.30175295
120	0xbf20cc22	-0.6281148
121	0xbee651db	-0.44984326
122	0xbe15439f	-0.14576577
123	0xbe9b1592	-0.30289894
124	0x3e679d04	0.2261849
125	0x3e55827f	0.20850562
126	0xbea4c982	-0.32184988
127	0xbeb26529	-0.34842804
128	0x3e192c1f	0.14958237
129	0xbe9604f5	-0.29300657
130	0x3c5d937d	0.0135239335
131	0xbca12ea3	-0.019675558
132	0xbed32640	-0.4124012
133	0xbea7be25	-0.32762256
134	0xbe8f5e75	-0.28001752
135	0xbec79502	-0.3898087
136	0xbee2675c	-0.44219482
137	0xbe44fa0b	-0.19236009
138	0xbecdb15a	-0.4017437
139	0xbe8b7f6e	-0.2724566
140	0xbea4ee81	-0.32213214
141	0xbf1535eb	-0.582854
142	0xbe4f7f93	-0.2026351
143	0xbe8332a8	-0.25624585
144	0x3d930759	0.07179136
145	0xbec2201b	-0.3791512
146	0xbf07f8ee	-0.5311421
147	0xbe8500fd	-0.25977316
148	0xbee479d3	-0.44624195
149	0xbeb4ef32	-0.35338742
150	0xbe7ff8b7	-0.24997221
151	0xbf208b9e	-0.6271304
152	0xbd9c70a7	-0.07638674
153	0xbedc6493	-0.43045482
154	0xbee939c1	-0.45551875
155	0xbe7e8a05	-0.24857338
156	0xbea99022	-0.33117777
157	0xbe61625a	-0.22010174
158	0x3e3e146a	0.18562475
159	0xbe94a56c	-0.29032457
160	0xbe0f8cb8	-0.14018524
161	0x3ddc639b	0.10761186
162	0x3e28422a	0.1643149
163	0xbc8073f9	-0.0156803
164	0xbd98c816	-0.07460038
165	0xbd74ce23	-0.0597669
166	0xbe50bd8f	-0.20384811
167	0x3d303f24	0.043028966
168	0x3de1f12c	0.11032328
169	0x3e145a10	0.14487481
170	0xbd70b53f	-0.0587666
171	0xbde35e7a	-0.11102004
172	0x3d7e908a	0.062149562
173	0x3e0efa91	0.13962771
174	0xbe3a17e9	-0.18173184
175	0xbe153a33	-0.14572982
176	0xba889be9	-0.0010422441
177	0xbe0b6f23	-0.13616614
178	0xbe7260ee	-0.23669788
179	0x3e332ca4	0.17497498
180	0x3dcae790	0.09907448
181	0x3e88a1f7	0.2668607
182	0x3e2d9df3	0.16954784
183	0xbdb1002a	-0.086426094
184	0xbdfbbb85	-0.12291626
185	0x3c5a1522	0.0133107025
186	0xbe5ed760	-0.21761847
187	0xbe9a246a	-0.30105907
188	0x3e0cf65d	0.13765855
189	0xbdd36a77	-0.10323041
190	0x3da8ae04	0.08236316
191	0x3d902338	0.070379674
192	0xbe1201b7	-0.14258467
193	0x3dc076df	0.09397673
194	0x3da492b5	0.08035795
195	0xbe27b905	-0.16379173
196	0xbebdde0c	-0.3708347
197	0xbe4bf152	-0.19916275
198	0xbc625c1c	-0.013815906
199	0x3e1dc284	0.15406233
200	0x3c85d53b	0.016337028
201	0xbd090359	-0.03345046
202	0xbd63719d	-0.055528272
203	0x3e0f88c1	0.14017011
204	0x3e6f91b9	0.23395433
205	0x3e49ea96	0.19718394
206	0x3dc5bdce	0.09655343
207	0xbe3277fc	-0.17428583
208	0xbe65ed3c	-0.22453779
209	0xbe428f0b	-0.18999879
210	0x3e7b3845	0.24533184
211	0xbe8791f5	-0.26478544
212	0xbd3f1fd6	-0.04666122
213	0xbe7c1cc8	-0.24620354
214	0xbe45507e	-0.19268987
215	0xbe42aab6	-0.19010434
216	0xbe9665b1	-0.2937446
217	0x3e88cb06	0.26717395
218	0xbe92b4a6	-0.2865345
219	0x3de3a7c8	0.11115986
220	0x3e2e88cd	0.17044373
221	0x3e583bd5	0.21116574
222	0x3e3e538d	0.1858656
223	0x3e5f3994	0.21799308
224	0x3e8cc4d7	0.27493927
225	0xbd87077b	-0.06593224
226	0x3e510b00	0.20414352
227	0xbe3b12b3	-0.18268852
228	0xbdaa2cc4	-0.083093196
229	0xbe235d2d	-0.15953512
230	0xbdddfe0b	-0.108394705
231	0xbdfd9d04	-0.12383464
232	0xbde1a809	-0.11018378
233	0xbe9fbc3d	-0.31198302
234	0xbd4cf2e9	-0.050036345
235	0xbbb16d43	-0.0054146363
236	0xbe3206a2	-0.17385343
237	0xbb9acf8e	-0.0047244495
238	0xbe89f60b	-0.26945528
239	0x3d922e44	0.07137731
240	0xbea6beb2	-0.32567364
241	0xbe8dacd5	-0.27670923
242	0x3d897ad2	0.06712879
243	0xbcea771c	-0.028621249
244	0xbf2a3396	-0.66484964
245	0xbe574cca	-0.21025386
246	0xbe9cd4b5	-0.30631033
247	0xbf63923d	-0.88895017
248	0x3df3498a	0.11879261
249	0xbef7afef	-0.48376414
250	0xbd3169f8	-0.04331395
251	0xbf5acd82	-0.8546983
252	0xbf2f5746	-0.68492544
253	0xbf545fbf	-0.82958597
254	0x3c11978e	0.008886231
255	0x3db09143	0.086214565

lstm.weight_ih_l1 f4 [320, 80]
0	0x3e9bef69	0.30456093
1	0xbe8b859c	-0.27250373
2	0xbe7db083	-0.24774365
3	0xbe0ec36b	-0.13941734
4	0x3eb2ed8e	0.34946865
5	0x3e7f7937	0.24948584
6	0xbefa31e9	-0.48866203
7	0xbed551f2	-0.41664082
8	0x3e81cc38	0.2535112
9	0xbf3ff638	-0.74985075
10	0xbd11aaae	-0.035563163
11	0x3e8e98b8	0.2785089
12	0x3d91d3a6	0.07120447
13	0x3e15e75f	0.14639042
14	0x3ed6cefe	0.41954798
15	0xbc2c65a4	-0.01052228
16	0xbd8b3113	-0.067964695
17	0x3f059d2c	0.5219295
18	0x3ef0ed62	0.4705611
19	0xbee6cbc9	-0.4507735
20	0xbeecca2b	-0.46247992
21	0x3e3b02fa	0.18262854
22	0xbedc63f5	-0.4304501
23	0x3ebaa912	0.36457115
24	0x3ec8c10b	0.3920978
25	0xbe7e6538	-0.248433
26	0x3e79586e	0.2435014
27	0x3e77d961	0.24204017
28	0xbe373606	-0.17891702
29	0xbdbf392b	-0.09337076
30	0xbea0d81d	-0.3141488
31	0xbebd441b	-0.36966023
32	0x3e4644d2	0.1936219
33	0xbebf7e99	-0.37401274
34	0xbd9c7140	-0.07638788
35	0xbdeaf81a	-0.11473103
36	0xbd835fd4	-0.06414762
37	0xbea8009a	-0.3281296
38	0xbdc99061	-0.09841991
39	0xbd28b2cd	-0.041186143
40	0xbdabb0fe	-0.08383368
41	0x3cee54e0	0.029093206
42	0x3e823457	0.25430557
43	0x3e0ef5d1	0.13960959
44	0xbedc2dfb	-0.4300383
45	0xbecea1f2	-0.4035793
46	0x3e50d87a	0.2039508
47	0xbda5b397	-0.08090895
48	0x3ea7f327	0.32802698
49	0x3f33946f	0.70148367
50	0xbeb889b5	-0.36042562
51	0x3f0637c9	0.5242887
52	0xbdf50418	-0.119636714
53	0x3ee07303	0.43837747
54	0x3ed6a896	0.41925496
55	0x3d86c431	0.06580389
56	0xbea231a9	-0.31678513
57	0xbf28a88f	-0.658822
58	0xbe9fb6b2	-0.31194073
59	0x3da7dc47	0.081963114
60	0xbdf2f160	-0.11862445
61	0x3c59c920	0.013292581
62	0xbee666cd	-0.45000306
63	0xbe282e61	-0.16423942
64	0xbeb28058	-0.34863544
65	0xbd68da7d	-0.05684899
66	0xbdc372d9	-0.0954339
67	0x3eca3b42	0.39498335
68	0xbe4d3ef7	-0.2004355
69	0x3ea361d1	0.31910565
70	0x3f206943	0.62660617
71	0xbdcaaf5f	-0.09896731
72	0x3e8b0a02	0.27156073
73	0xbdc9ccdf	-0.09853529
74	0xbe97d254	-0.29652655
75	0x3e891b07	0.26778433
76	0x3efa1232	0.48842007
77	0x3de17e7b	0.11010452
78	0x3e7ef14e	0.24896738
79	0x3c9d233e	0.019181844
80	0x3e213dc8	0.15746224
81	0xbe294eff	-0.16534041
82	0xbe9cbb64	-0.30611718
83	0x3e927a79	0.28609064
84	0x3e15431c	0.14576381
85	0xbc58bc48	-0.0132284835
86	0x3d1ba3f4	0.037998155
87	0xbe69293f	-0.2276964
88	0xbe6c1ce1	-0.23057891
89	0x3c5ac8bc	0.013353523
90	0xbe3d2ce0	-0.1847415
91	0xbd92f587	-0.07175737
92	0xbe8e5cab	-0.27805075
93	0xbd1911a8	-0.037370354
94	0x3e8a21eb	0.26979002
95	0x3eb853a2	0.36001307
96	0x3ec90901	0.39264682
97	0x3eb6fb01	0.35738376
98	0x3f28f755	0.660024
99	0xbe21a0b8	-0.15783966
100	0xbeafd4dc	-0.34342086
101	0xbe28c4c5	-0.16481312
102	0xbe8863a3	-0.26638517
103	0x3cfcd3b7	0.030862672
104	0x3ec457a4	0.38348114
105	0x3e90c033	0.28271636
106	0x3e9fa7a1	0.31182578
107	0x3e319bbd	0.17344566
108	0xbed13c88	-0.40866494
109	0x3c10f313	0.008847016
110	0xbd43a693	-0.04776628
111	0xbc09ff3c	-0.008422669
112	0x3e791371	0.24323823
113	0xbdd71530	-0.10502088
114	0x3da236b9	0.07920594
115	0x3e0fbd9e	0.14037177
116	0xbd00849e	-0.031376474
117	0xbeb38c52	-0.35067993
118	0xbe124a80	-0.14286232
119	0x3bf7a4b2	0.007557475
120	0xbdfced46	-0.12349944
121	0x3e1ffe4c	0.1562435
122	0x3cfa1bbb	0.030530801
123	0x3e640f48	0.22271454
124	0xbe432c28	-0.19059813
125	0xbedc3172	-0.43006474
126	0x3e44e3f2	0.19227579
127	0x3e818f58	0.25304675
128	0x3e2b6040	0.16735935
129	0xbcba5daf	-0.02274975
130	0xbed6e74e	-0.41973346
131	0x3e5c2af2	0.21500757
132	0x3d602b37	0.054728713
133	0x3e4d978a	0.20077339
134	0x3e105d60	0.1409812
135	0xbd98cf34	-0.07461396
136	0x3d5ca2e2	0.053866275
137	0xbc8c33a2	-0.017114464
138	0x3dfca1f7	0.1233558
139	0xbb34038b	-0.0027467932
140	0xbdb41041	-0.08792163
141	0xbe2ef9b4	-0.17087442
142	0xbe56bace	-0.20969698
143	0xbdc8e95a	-0.09810133
144	0xbe2321bf	-0.15930842
145	0x3de5dbf0	0.112235904
146	0x3caf446e	0.021394935
147	0x3e654ca2	0.22392514
148	0x3e6b5ea2	0.22985318
149	0x3e10b906	0.14133081
150	0x3dda8a7d	0.10670946
151	0x3e0ebe92	0.13939884
152	0x3e582de4	0.21111256
153	0x3edc70b0	0.43054724
154	0x3e9caf51	0.30602506
155	0xbdb03938	-0.086046636
156	0x3e969247	0.29408476
157	0x3dbb5108	0.09146315
158	0x3ea10116	0.3144614
159	0x3dc4615e	0.09588884
160	0x3e98e405	0.29861465
161	0xbd75143a	-0.059833743
162	0xbf17b1c1	-0.59255606
163	0x3e09c8b8	0.13455474
164	0x3e601728	0.21883833
165	0x3e15d84e	0.14633295
166	0xbd366ce8	-0.044537455
167	0xbe7cbd14	-0.24681503
168	0xbe54fe3a	-0.20800105
169	0x3c238404	0.009980205
170	0x3d4cf576	0.050038777
171	0x3e06467a	0.13112822
172	0x3d9d5e1f	0.07683968
173	0xbf177d31	-0.591754
174	0x3ea82855	0.3284327
175	0x3e8481ff	0.2588043
176	0x3db93c00	0.09044647
177	0x3e08abe4	0.13346821
178	0x3ef1184a	0.47088844
179	0xbe08ad93	-0.13347463
180	0xbeadba62	-0.3393126
181	0xbeb4f09d	-0.35339823
182	0xbea02f3f	-0.31286046
183	0xbd3533d3	-0.044238877
184	0x3eca6611	0.39530995
185	0xbda23172	-0.07919587
186	0x3edb1bc1	0.42794612
187	0x3ef87970	0.4853015
188	0xbd89e534	-0.0673317
189	0x3e512b4a	0.2042667
190	0x3e748cb8	0.23881805
191	0xbeaa0e4a	-0.33214027
192	0x3ea92eee	0.33043617
193	0xbdaf12c9	-0.08548505
194	0x3dcb8367	0.099371724
195	0x3e1b6ef0	0.15179038
196	0x3dd16fc8	0.10226399
197	0xbeadf821	-0.3397837
198	0xbd8ef078	-0.069794595
199	0x3e1531db	0.145698
200	0xbe5afb7f	-0.21385
201	0x3cd9e1fc	0.026597016
202	0x3cf8f7c2	0.030391578
203	0xbceaa964	-0.028645225
204	0xbec7f216	-0.39051884
205	0xbeb02a5a	-0.34407312
206	0xbcbfcd71	-0.023413392
207	0x3d359c56	0.044338547
208	0x3ee0de27	0.4391949
209	0x3e5457b8	0.20736587
210	0xbee11691	-0.4396253
211	0x3ede35b5	0.4340035
212	0xbd5189f4	-0.051156953
213	0x3d932c05	0.071861304
214	0x3ebcc0b5	0.36865774
215	0x3e6a9b21	0.2291074
216	0x3e9396aa	0.28825885
217	0xbd7fe303	-0.062472355
218	0x3eb98415	0.36233583
219	0xbdb7d5a3	-0.08976295
220	0xbe7c7d91	-0.24657275
221	0xbdc6d852	-0.097092286
222	0x38a7b500	7.9968944e-05
223	0xbe005fa7	-0.12536488
224	0xbf42c92d	-0.7608822
225	0x3e06d59d	0.13167424
226	0xbe8b1f68	-0.271724
227	0x3eb10c31	0.34579614
228	0x3d2e46ee	0.042548113
229	0x3d589c29	0.0528833
230	0xbda47ef7	-0.08032029
231	0x3d88e280	0.066838264
232	0x3e879add	0.2648534
233	0x3f1b2678	0.60605574
234	0x3e6134e5	0.21992834
235	0x3cf77376	0.030206423
236	0x3e8fee64	0.28111565
237	0xbd8c2edd	-0.06844876
238	0x3e696feb	0.227966
239	0xbe5610d9	-0.20904864
240	0x3ea83793	0.328549
241	0xbf502ec3	-0.8132135
242	0xbf502231	-0.8130217
243	0x3f81d12c	1.0141959
244	0x3d9d1b2f	0.076712005
245	0x3dca2099	0.09869499
246	0xbe02c1cd	-0.12769242
247	0x3f0af39d	0.54277974
248	0xbfc7a393	-1.5596794
249	0x3ea4f99a	0.3222168
250	0xbfa9ef21	-1.3276101
251	0xbe419b33	-0.1890686
252	0x3dddeb42	0.108358875
253	0xbf16eccf	-0.5895509
254	0x3e8f594d	0.2799782
255	0x3f7f7512	0.9978801

lstm.weight_hh_l1 f4 [320, 80]
0	0xbe36aac0	-0.17838573
1	0xbe226a0b	-0.15860765
2	0x3decacb5	0.11556379
3	0x3e8d41a6	0.27589148
4	0xbd34dbc5	-0.0441549
5	0x3dc280db	0.094972335
6	0x3e96464e	0.29350513
7	0x3e286ac5	0.1644698
8	0x3e6b2aa8	0.22965491
9	0x3e8907e9	0.26763847
10	0xbe2da2da	-0.16956654
11	0x3e9e55ee	0.30924934
12	0xbdfb74a6	-0.12278108
13	0x3d540d3b	0.05177043
14	0x3d2a2fc3	0.041549455
15	0xbe0dd972	-0.1385248
16	0xbefcbf48	-0.49364686
17	0xbebe0c59	-0.37118796
18	0xbdcd77c1	-0.10032607
19	0x3f239f37	0.6391482
20	0x3de78a7d	0.113057114
21	0x3e2e5238	0.17023551
22	0xbe0e3995	-0.13889153
23	0xbdfd144f	-0.12357389
24	0x3db47bb8	0.0881266
25	0x3e2ce7a2	0.16885236
26	0x3d9d8421	0.07691217
27	0xbe1c43e7	-0.15260278
28	0xbf359242	-0.70926297
29	0x3eb1e725	0.34746662
30	0xbcd1bc0a	-0.02560236
31	0xbc92f9b7	-0.017941339
32	0xbe0dc288	-0.13843739
33	0x3dd9aff4	0.106292635
34	0xbd654e90	-0.055983126
35	0xbdf1fbee	-0.1181563
36	0x3d1461a5	0.036225934
37	0x3e565563	0.2093101
38	0xbeb090e0	-0.3448553
39	0xbefa5c5a	-0.48898584
40	0xbeeb085e	-0.4590482
41	0xbe04ad39	-0.12956704
42	0xbdc0dccf	-0.09417116
43	0x3cecc2cb	0.028901478
44	0x3ea6d290	0.3258252
45	0xbdd32837	-0.10310405
46	0x3dcebb0e	0.100942716
47	0xbdb322bc	-0.087468594
48	0xbd05c471	-0.032658044
49	0xbdc5364d	-0.09629498
50	0xbcd1e3e1	-0.025621356
51	0x3e301ffe	0.17199704
52	0x3eb40df8	0.35166907
53	0x3d112c59	0.035442684
54	0x3e44e842	0.19229224
55	0xbef9df8b	-0.48803362
56	0x3df712b9	0.12064118
57	0x3d343838	0.043998927
58	0xbe0b6c0e	-0.13615438
59	0x3dd2b629	0.102886505
60	0x3f03991f	0.5140552
61	0x3e20eefb	0.15716164
62	0xbd7a5a1c	-0.06112109
63	0xbf0dd53a	-0.5540348
64	0x3f555b1d	0.8334215
65	0x3e24a96e	0.16080257
66	0xbe00315e	-0.12518832
67	0xbee58845	-0.44830528
68	0x3c1fd061	0.009754271
69	0xbeb42dde	-0.35191244
70	0xbe0df327	-0.13862287
71	0x3e606186	0.21912202
72	0xbda3ff09	-0.080076285
73	0xbf3703fc	-0.71490455
74	0xbede9adc	-0.43477523
75	0x3d76a012	0.06021125
76	0xbe5bf00b	-0.21478288
77	0xbe47e069	-0.195192
78	0xbddbacd8	-0.10726327
79	0xbe7af345	-0.24506862
80	0xbe3b748e	-0.18306181
81	0xbe207c00	-0.15672302
82	0x3d8c3e1a	0.068477824
83	0xbd2d5491	-0.042316977
84	0xbd80097a	-0.062518075
85	0x3e1a859f	0.15090035
86	0xbe1418e4	-0.1446262
87	0x3e4ea969	0.20181812
88	0x3dee628d	0.11639891
89	0x3e649fd2	0.22326592
90	0x3e311f63	0.1729713
91	0x3d02e38e	0.031955294
92	0xbdbc86ff	-0.09205436
93	0xbca36e6b	-0.019950112
94	0x3d520c80	0.051281452
95	0x3eee74d5	0.4657351
96	0x3dae736c	0.08518109
97	0xbd970286	-0.07373528
98	0xbe4eaa1d	-0.2018208
99	0x3f40b4be	0.7527579
100	0x3d6600d2	0.056153126
101	0xbe3655ee	-0.17806217
102	0x3da73166	0.08163719
103	0xbdb6e79a	-0.08930893
104	0x3df0634c	0.117376894
105	0xbd5fe09c	-0.054657564
106	0x3e2342f1	0.15943505
107	0x3e2593ca	0.16169658
108	0xbc85d039	-0.01633464
109	0x3dfdecac	0.12398657
110	0x3cbb2dcf	0.022848992
111	0xbaaeba2e	-0.0013330632
112	0xbc953b60	-0.018216789
113	0xbd796edf	-0.06089675
114	0xbc4cf1a9	-0.012508788
115	0xbe828de0	-0.25498867
116	0x3d069c62	0.032863982
117	0xbe8815b3	-0.26579055
118	0x3e025c30	0.12730479
119	0xbd676629	-0.056493912
120	0xbed63c3a	-0.41842824
121	0xbe0aac6d	-0.13542338
122	0xbeb93ed7	-0.36180755
123	0x3e106393	0.14100485
124	0x3ece71f7	0.40321323
125	0x3e4d471c	0.20046657
126	0xbdf62e1f	-0.12020516
127	0xbe1c399c	-0.15256351
128	0xbe661f3f	-0.22472857
129	0xbe1a7a23	-0.15085654
130	0xbea253ba	-0.31704503
131	0x3d3fa6bc	0.04678987
132	0x3e54a4dc	0.20766014
133	0x3e3b53ac	0.18293637
134	0xbdeed628	-0.11661941
135	0xbec21c72	-0.37912327
136	0x3e8bd84d	0.27313462
137	0x3e471f24	0.19445473
138	0xbe0a284a	-0.13491932
139	0xbe1138c4	-0.1418181
140	0x3f0c56e6	0.54820096
141	0x3ec84b86	0.3912012
142	0xbe431005	-0.1904908
143	0x3d7e71d2	0.062120266
144	0xbc6feba2	-0.014643582
145	0xbe848a98	-0.2588699
146	0xbd94ec6b	-0.07271656
147	0xbe1574e8	-0.14595377
148	0x3eb3b16d	0.35096303
149	0xbe932e38	-0.287462
150	0x3d9ad978	0.0756101
151	0xbbec54c1	-0.007212252
152	0xbdb82a56	-0.0899245
153	0xbefb4e59	-0.49083212
154	0x3d396e6f	0.045271333
155	0x3ec48453	0.38382205
156	0xbe07135b	-0.13190977
157	0x3e10b7b9	0.14132585
158	0xbe9c4b81	-0.30526355
159	0x3db3b03d	0.08773849
160	0x3e3b7eb2	0.18310049
161	0xbec8c21f	-0.39210603
162	0x3e395a35	0.18100818
163	0x3f066382	0.52495587
164	0x3ee32fd6	0.44372433
165	0xbe904d88	-0.28184152
166	0xbd4c7cfd	-0.049923886
167	0x3ec18b47	0.37801573
168	0x3efbff40	0.49218178
169	0x3eedbc02	0.464325
170	0x3dd78312	0.105230466
171	0xbe439ca3	-0.19102721
172	0xbe628fe1	-0.22125198
173	0x3ed54edd	0.4166173
174	0x3e7e5feb	0.24841277
175	0xbe6f9a02	-0.23398593
176	0xbeba34a7	-0.36368296
177	0x3d9ceb06	0.07662015
178	0x3e2ed980	0.17075157
179	0x3ed0312c	0.40662515
180	0xbeff9f4e	-0.49926227
181	0x3e624a56	0.2209867
182	0xbecde4ee	-0.40213722
183	0x3d053e1f	0.032529946
184	0x3ee72539	0.45145586
185	0x3da4412a	0.080202416
186	0xbd6f91d1	-0.05848867
187	0x3d97a5a4	0.0740464
188	0x3da1a54d	0.07892857
189	0x3cb60b0e	0.022222068
190	0x3e87ca4c	0.26521528
191	0x3e704372	0.23463228
192	0xbdf47875	-0.11937038
193	0x3f073c7e	0.5282668
194	0xbf20457e	-0.62606037
195	0xbf233c29	-0.6376367
196	0x3e53fb11	0.20701243
197	0x3d9a7305	0.075414695
198	0x3de8b07a	0.11361785
199	0xbdb0a4e3	-0.086252
200	0xbeb3b4b0	-0.3509879
201	0xbefd1ec3	-0.49437532
202	0xbd45d079	-0.04829452
203	0x3d5d22cb	0.05398826
204	0x3e0b06ff	0.13576888
205	0x3d6f86df	0.058478232
206	0xbe7256ed	-0.23665972
207	0xbedaa22a	-0.42701846
208	0xbe8aa7dc	-0.27081192
209	0xbdf01cdc	-0.117242545
210	0x3e5d920f	0.21637748
211	0xbefc8472	-0.49319798
212	0x3ec41094	0.38293898
213	0xbb28e434	-0.0025770785
214	0xbdf2acc1	-0.118493564
215	0xbf515ec6	-0.8178524
216	0x3f0e6ad1	0.5563174
217	0xbd0d6385	-0.034518737
218	0x3e19de66	0.15026245
219	0xbdc8c7a3	-0.09803703
220	0xbea598c1	-0.32343104
221	0x3e9d8632	0.30766445
222	0x3dff6ce2	0.124719396
223	0xbd6abfd6	-0.057311855
224	0xbd51a830	-0.051185787
225	0x3e741f60	0.23840094
226	0x3e500d71	0.20317627
227	0x3d09cd5b	0.033643108
228	0xbdec1dee	-0.11529146
229	0xbf1fa03c	-0.62353873
230	0xbc77fea0	-0.015136391
231	0xbe1bb674	-0.15206319
232	0x3e92e291	0.2868848
233	0xbf67c49e	-0.9053439
234	0xbe0636cd	-0.13106842
235	0x3de6ad4b	0.11263522
236	0xbefd3660	-0.49455547
237	0xbe1a69e6	-0.1507946
238	0xbd75184e	-0.059837632
239	0x3cdff4af	0.027338354
240	0xbeac3e6e	-0.3364138
241	0xbe38f0e7	-0.18060647
242	0xbe39ceeb	-0.18145339
243	0x3dae637d	0.0851507
244	0xbe17bdcf	-0.148185
245	0x3f3cff48	0.7382703
246	0x3db44f0e	0.08804141
247	0x3dc5dd63	0.09661367
248	0xbe5fd493	-0.21858434
249	0x3da4efa4	0.0805352
250	0x3b4b8934	0.0031057121
251	0x3e669b8a	0.22520271
252	0xbdb70ee7	-0.08938389
253	0xbec947f1	-0.393127
254	0xbd1a8abc	-0.037729964
255	0xbeb4bd0b	-0.35300478

lstm.bias_ih_l1 f4 [320]
0	0xbf16c160	-0.58888817
1	0xbeac9eae	-0.33714813
2	0xbead67d2	-0.3386827
3	0x3e9eb29e	0.3099565
4	0xbf32f3ef	-0.69903463
5	0x3e868bcc	0.26278532
6	0xbf278cde	-0.6544932
7	0xbf18bded	-0.59664804
8	0xbf5986af	-0.84971136
9	0xbf2fdaf9	-0.686935
10	0xbef1535f	-0.4713392
11	0xbf39494c	-0.7237747
12	0xbf597457	-0.84943146
13	0x3e929dae	0.28635925
14	0xbf1efb16	-0.62101877
15	0xbf27648f	-0.65387815
16	0xbf0a3b94	-0.5399716
17	0xbec2421e	-0.37941068
18	0xbf46c8ba	-0.77650034
19	0xbe7d8395	-0.24757226
20	0xbe5c98bb	-0.21542637
21	0xbf2e5ffd	-0.68115216
22	0xbed95284	-0.42445767
23	0xbe8162e1	-0.2527075
24	0xbf15d02b	-0.58520764
25	0xbec1301f	-0.37732026
26	0xbf763594	-0.96175504
27	0xbf3e262d	-0.74277
28	0x3ec401ec	0.38282716
29	0xbeecc85a	-0.46246606
30	0xbf6e841a	-0.9317032
31	0x3d788127	0.060670044
32	0xbf2a2ad8	-0.66471624
33	0xbf00b4a4	-0.50275636
34	0xbf120747	-0.57042354
35	0x3e27fb41	0.1640444
36	0xbf205b09	-0.6263891
37	0xbf562c10	-0.83660984
38	0xbecbc411	-0.39798024
39	0xbe89543e	-0.26822084
40	0x3ead8c55	0.33896127
41	0xbe406708	-0.18789303
42	0xbf27240a	-0.65289366
43	0xbf10ef20	-0.56614876
44	0xbea07fc2	-0.3134747
45	0xbd9b7d36	-0.075922415
46	0xbe78b109	-0.24286284
47	0xbdaf7498	-0.0856716
48	0xbf28584b	-0.65759724
49	0xbf0f4131	-0.5595885
50	0xbf1bcc41	-0.6085854
51	0xbf76ffd8	-0.96484137
52	0xbdcd81b7	-0.10034507
53	0xbf4f0031	-0.8085967
54	0xbf513968	-0.8172822
55	0x3e1beae7	0.15226327
56	0xbeaf0554	-0.34183753
57	0xbf28491f	-0.65736574
58	0xbf445c3e	-0.7670325
59	0xbf0b438d	-0.5439995
60	0xbe32969a	-0.17440262
61	0x3ef785b1	0.48344186
62	0xbf093dfd	-0.5361021
63	0xbe9a8de4	-0.3018638
64	0x3d91b94d	0.071154214
65	0xbf331d28	-0.69966364
66	0xbf0fb671	-0.5613776
67	0xbf13dc57	-0.57758087
68	0xbf27353a	-0.6531559
69	0xbe5ec7e0	-0.21755934
70	0xbf047a0d	-0.51748735
71	0xbeee2089	-0.46509197
72	0xbe919102	-0.28430945
73	0xbeb0bddb	-0.34519848
74	0xbefa6faa	-0.48913318
75	0xbe9e384b	-0.30902323
76	0xbe8b4f84	-0.27209103
77	0xbc984b22	-0.018590514
78	0xbf0d4075	-0.5517648
79	0xbdf0dc96	-0.117608234
80	0xbee50c70	-0.44736052
81	0xbe55b7bb	-0.20870869
82	0xbe9847e6	-0.29742354
83	0xbeaf7eec	-0.3427652
84	0xbea791e4	-0.32728493
85	0xbf84bccb	-1.0370115
86	0xbe9a4ce9	-0.30136803
87	0xbce509d5	-0.02795879
88	0xbf155fa0	-0.5834904
89	0xbf3ded5b	-0.741903
90	0xbd7b9a04	-0.061426178
91	0xbf39e7e4	-0.7261946
92	0xbe98a5e4	-0.29814065
93	0xbf8d59c3	-1.1043018
94	0xbe441cac	-0.19151562
95	0xbeaa9ee4	-0.3332435
96	0xbe895371	-0.26821473
97	0xbf630fab	-0.8869578
98	0xbea091b6	-0.3136117
99	0x3e7bed56	0.24602255
100	0xbef695d3	-0.48161182
101	0xbef932bc	-0.4867152
102	0xbf1293fd	-0.5725706
103	0xbead725a	-0.33876306
104	0xbede3859	-0.43402365
105	0xbe0c3bb9	-0.13694657
106	0xbf034a40	-0.5128517
107	0xbf2812e9	-0.65653855
108	0xbf55ad6c	-0.83467746
109	0xbe8b48a7	-0.27203867
110	0xbf0e4fc2	-0.5559045
111	0xbef47785	-0.47747436
112	0xbeb6371d	-0.35588923
113	0xbe9c3cb8	-0.30515075
114	0xbe1cca46	-0.15311536
115	0xbd0653c0	-0.032794714
116	0xbf0ce832	-0.550418
117	0xbf26d9ad	-0.65175897
118	0xbe69e963	-0.22842936
119	0xbf49e927	-0.7887139
120	0x3e021ca5	0.1270624
121	0xbf099fee	-0.5375966
122	0xbe4218dd	-0.18954797
123	0xbeb09bd0	-0.34493876
124	0xbf696ff8	-0.91186476
125	0x3dbe9ee1	0.093076475
126	0xbe3c2333	-0.18372802
127	0xbddd8213	-0.10815825
128	0xbe5a33a7	-0.21308766
129	0xbde214d9	-0.110391326
130	0xbe43d378	-0.19123638
131	0xbf322642	-0.69589627
132	0xbd8362a2	-0.06415297
133	0xbef8dec3	-0.48607454
134	0xbe93d25f	-0.28871438
135	0x3f20a679	0.6275402
136	0xbdcd0010	-0.100097775
137	0xbe836381	-0.25661853
138	0xbead6e17	-0.33873054
139	0xbe56ba15	-0.20969422
140	0xbf191666	-0.597998
141	0x3eddc238	0.4331224
142	0xbf067f55	-0.52538043
143	0x3cb9f72f	0.022700874
144	0x3daecaba	0.08534761
145	0xbeab71d8	-0.33485293
146	0xbea52a84	-0.32259
147	0xbf0b5e25	-0.5444053
148	0xbe41c3aa	-0.18922296
149	0xbe85313e	-0.2601413
150	0xbd822b8d	-0.06355963
151	0xbec9cd7c	-0.39414585
152	0xbf219649	-0.6311994
153	0xbddb3ecf	-0.10705339
154	0xbedb0372	-0.42776066
155	0x3dd12d9c	0.102137774
156	0xbd8e57f0	-0.069503665
157	0x3e86bc9d	0.26315776
158	0xbe2b752e	-0.16743919
159	0xbda73b21	-0.08165575
160	0x3d5508c9	0.05201033
161	0x3d9496ef	0.07255351
162	0x3e8e1e75	0.27757612
163	0xbddbd5aa	-0.107341126
164	0x3e172bcd	0.14762802
165	0x3d765785	0.06014206
166	0x3e192908	0.14957058
167	0x3b632d7c	0.0034664562
168	0xbcaf63de	-0.021409925
169	0xbe0fb61c	-0.14034313
170	0xbe8f8233	-0.28029022
171	0x3de619da	0.112353995
172	0xbdc906b1	-0.098157294
173	0x3e5ea2cd	0.21741791
174	0xbe2d1188	-0.16901219
175	0xbbbfb745	-0.005850705
176	0xbe2bb7dd	-0.16769357
177	0xbe0b5f90	-0.13610673
178	0x3dcac709	0.09901244
179	0x3e1209aa	0.14261499
180	0xbdd3d99d	-0.10344241
181	0xbc54ed7e	-0.012996076
182	0x3e6343ee	0.22193882
183	0xbd245791	-0.040122572
184	0x3d163715	0.036673624
185	0x3c2a3b79	0.010390156
186	0xbe1ccc00	-0.15312195
187	0xbdf3b8e0	-0.119004965
188	0xbdad8629	-0.08472855
189	0x3e0781ff	0.13233183
190	0x3dd13c5e	0.10216592
191	0x3e091376	0.1338633
192	0x3dab613e	0.08368157
193	0xbdd07e78	-0.10180372
194	0x3ddced79	0.10787482
195	0x3daaa85d	0.08332894
196	0x3d198762	0.037482627
197	0x3db631ce	0.08896218
198	0xbe25b0d3	-0.16180734
199	0xbe4b7fda	-0.1987299
200	0x3ed63591	0.41837743
201	0xbda7c1c2	-0.08191253
202	0x3cca369b	0.024684241
203	0x3e104dbe	0.14092156
204	0xbe94ece3	-0.2908698
205	0xbe88e733	-0.2673889
206	0x3dee47f4	0.11634818
207	0xbdeb53f6	-0.11490624
208	0xbb2e24f9	-0.002657233
209	0xbd86302f	-0.06552159
210	0xbdbbbf8a	-0.091673926
211	0x3dbd7948	0.09251648
212	0xbe759fac	-0.23986691
213	0xbd7b9571	-0.061421815
214	0xbe4e97a3	-0.20175032
215	0xbe32e2b4	-0.17469293
216	0xbdf7dea5	-0.12103013
217	0xbd810472	-0.06299676
218	0xbdd7e39b	-0.10541459
219	0xbd83ff59	-0.06445188
220	0x3c02c76c	0.007982116
221	0xbe64f82b	-0.22360294
222	0x3dff27da	0.12458773
223	0xbe1c71e3	-0.1527782
224	0x3e6a9f49	0.22912325
225	0x3d49e38e	0.04928928
226	0x3e08602f	0.13317941
227	0xbe0d3669	-0.13790287
228	0xbe30b73e	-0.17257401
229	0x3e6a2ac3	0.22867875
230	0xbda9d18d	-0.08291922
231	0x3dbf4e5a	0.09341116
232	0x3e4341ac	0.1906802
233	0x3e580552	0.2109578
234	0xbdc4eee7	-0.096158795
235	0xbe5989b2	-0.21243933
236	0xbdb123b6	-0.086493894
237	0xbe68c8f8	-0.22732913
238	0x3c525467	0.012837506
239	0xbe22f035	-0.15911944
240	0xbf09f64d	-0.5389145
241	0xbedca3c8	-0.43093705
242	0xbeddcad1	-0.433188
243	0x3e5ccf98	0.21563566
244	0xbf36f655	-0.7146962
245	0xba4f2c7c	-0.0007903052
246	0xbf372d22	-0.7155324
247	0xbf0f4382	-0.55962384
248	0xbf4dbde4	-0.80367875
249	0xbf194112	-0.59864914
250	0xbf1e9a7a	-0.6195446
251	0xbf2e264c	-0.68027186
252	0xbf308745	-0.68956405
253	0x3ea2f0e7	0.3182442
254	0xbf13226e	-0.5747441
255	0xbf30023b	-0.68753403
